app/src/main/assets/intent_detection_model.tflite (tflite, 128664 bytes, 6 tensors)

arith.constant f4 [25, 64]
00000000: 8e16 10bf 6651 293f e22c b23e 0dfb 073f
00000010: 44b0 4b3d e404 0e3f d420 10be 290c 383f
00000020: 0b37 163e 2a49 98be 6c47 eb3e 292f 093f
00000030: 0054 9d3e 0a7c b73d b613 98be 2586 433e
00000040: eb23 023e 5472 88be 8855 1cbd f232 c4be
00000050: f3a3 123f 4701 9fbe 1bc9 0f3f a817 023f
00000060: 8f41 eb3d 9387 0f3e f427 463f 57a7 50be
00000070: 433f 52be 880d a1be c901 b93e 23b3 e7be
00000080: 0c93 3e3f 4855 9a3e c2d2 b13e d1de 05be
00000090: 2fa5 493f 98b9 3e3f 961a f83e a6fb b1be
000000a0: 0a59 193f b35c ae3e c371 edbe 4c1f 49be
000000b0: 5970 333f 903b 88be d276 76be c5d8 0dbf
000000c0: c232 afbc 3fb3 0abf c41e c0be 108c 89be
000000d0: fa39 eebe 2884 84be 0639 85be 2fb2 083f
000000e0: 491d d2be bcea 02be 203a bdbe a80a 76be
000000f0: 4c9d a1be a748 b3be a20e a3be 5ce1 77be
00000100: 4c0e 3ebf c730 0dbe a353 97be 0538 13bf
00000110: f9d2 dc3d 322a 533d 10f8 ca3e 8a95 193f
00000120: c4ea ebbe 3967 393f 207d 3a3f 4917 81be
00000130: 7727 b83e 2ae1 47be 87a3 ea3d 9d54 25bf
00000140: e1b6 133f 1021 afbe 19be dabe a99d da3e
00000150: bc7c 4e3f c7ea b3be ab23 3d3f 1b54 1d3f
00000160: 3878 2bbf 7878 02bf 2872 9abe 3f2f 90be
00000170: 29ca 12bf e8f4 e13e ebcc 91be 8696 15bf
00000180: 7673 debd c131 a0be 7f06 0ebf 6382 16bd
00000190: 072b d0be 3ef1 233f 1849 ae3e 467f 2b3f
000001a0: deed 503f 8ea2 dabd bf92 58bf d47e 24bf
000001b0: d1dc 263f 0959 263f c68a afbe 0913 99be
000001c0: b7ea 0e3f d548 72bd 9f5a 3dbc 739a 7bbe
000001d0: bf63 e93e f2ea 37bf 8202 01bf c88f 683e
000001e0: 8e5b e33e 5874 9fbd c826 933e bb0c 883e
000001f0: ab80 bbbe c0f4 c1be 5d10 c9be ca87 513f
00000200: b073 ab3e 5651 7cbe 068e 20bf 7592 633e
00000210: 46f3 85be 5c9e 163e 8866 0a3f 7968 4abd
00000220: 39d5 05bf 2b08 4e3f 14ed a1be 9853 8bbe
00000230: ca66 65be fb23 6c3f 53ec 0ebf 4dcb 33bf
00000240: 6884 103f 6e5d dbbe f8ed 17bf 1ce4 53be
00000250: 5db0 1d3f d7c1 b2be 9303 5f3f f55a cfbe
00000260: 54e6 d5be afa2 0abf 842c 23bf e041 dcbe
00000270: 458e 28bf cbc0 22bf b67e 573f 5288 233f
00000280: 5c1e 87be 444d 143f 5a2c 04be 04be 873d
00000290: b11a 273f d30b 413f 0f06 1c3f bf38 0b3f
000002a0: fde1 5ebe d04c 253f 8ead 3abf d948 1e3f
000002b0: 643a 0c3f 1bf4 96be 01e7 11bf 0802 45bf
000002c0: 77e6 4cbe 01c3 ecbe 9514 febe 6ddb 36bf
000002d0: ad7b d2be 1132 613e 9cb3 d2be b9cf b03e
000002e0: 1b3a 37bf 2265 aabe 5eb1 dfbe c4e4 c4be
000002f0: 6a87 273f 8b55 1fbf c9c9 2d3e cdd3 093f
00000300: d0d9 07bf b46b b6be 5b31 f0be 8cd7 94bd
00000310: 804d 4abe 4a21 04bd b15d 1e3f 0414 96be
00000320: bad2 f7be d1de 87bd a434 e3be d362 2bbf
00000330: 8096 0e3f ca35 92be 0c80 10bf 9875 b7be
00000340: 3f66 513f b34b 203f 0fe9 f33e 727d 463f
00000350: f543 56bc e4ed 9fbe aa1d 5abd 1127 523f
00000360: cad5 30be 45ea 84be 2369 c2be 7ce1 24be
00000370: 9b66 aebe 2527 9cbe 6ba9 b1be f522 02bf
00000380: c1b5 96bd 1f44 203f a3de c7be 97d3 963e
00000390: 79ed 353f 5b67 8fbd 4bd4 183f 9462 c3be
000003a0: 3ec7 9cbe 085b d03e 9ab5 40bf a141 1a3f
000003b0: a02b 353f 46e1 6abe 68ab 07bf 2fd9 edbe
000003c0: 969a 9fbd 01b3 0c3f 1032 2ebe 922f c2be
000003d0: 5da4 683f ad19 e6be 4aab 1dbf f055 0ebf
000003e0: aca9 cb3e 3673 51be 23db f2be 07f6 2e3f
000003f0: 8481 9f3e f6af e8be 514d 0dbf f4f0 ccbe
-0.56284416 0.6613983 0.34799868 0.5311745 0.049728647 0.5547621 -0.14075023 0.71893555
0.14669435 -0.2974332 0.45952928 0.53587586 0.3072815 0.089592054 -0.29702538 0.19094141
0.12709014 -0.26649725 -0.038167506 -0.38320118 0.57281417 -0.31055662 0.5616624 0.50817347
0.11487114 0.14016561 0.77404714 -0.20376335 -0.20531945 -0.31455636 0.36134174 -0.45253858
0.74443126 0.3014319 0.34731108 -0.13073279 0.78767675 0.74501944 0.48457783 -0.34762305
0.5990149 0.340551 -0.46375856 -0.19640845 0.70093304 -0.26607943 -0.24068764 -0.5540889
-0.021386508 -0.5417976 -0.37523472 -0.26864672 -0.46528608 -0.25882077 -0.26020068 0.53396887
-0.41037968 -0.12784857 -0.36958408 -0.24027503 -0.3156532 -0.35016367 -0.318471 -0.24207062
-0.74240565 -0.13788138 -0.29555997 -0.57507354 0.10782427 0.051553912 0.39642382 0.59993804
-0.4607755 0.7242313 0.72847176 -0.25213078 0.3596761 -0.19519487 0.114569716 -0.64582235
0.57700926 -0.34204912 -0.42723158 0.4269841 0.8065908 -0.35140058 0.7388255 0.6145646
-0.66980314 -0.5096507 -0.3016522 -0.28161046 -0.5733972 0.4413216 -0.28476653 -0.58432806
-0.10861866 -0.3128796 -0.5547866 -0.03674544 -0.40657827 0.6403998 0.3404014 0.6699108
0.81612957 -0.10675536 -0.84598917 -0.64256024 0.6518069 0.64979607 -0.34285563 -0.29897335
0.55826896 -0.05915149 -0.01155725 -0.24570636 0.45583913 -0.71842873 -0.5039445 0.22711098
0.44405788 -0.07785863 0.28740525 0.26572213 -0.36621603 -0.37882042 -0.39270297 0.8184782
0.334867 -0.24640402 -0.6271671 0.22223838 -0.26162165 0.14708847 0.540627 -0.04941604
-0.52278477 0.80481213 -0.3162619 -0.27212214 -0.22402492 0.922424 -0.5582935 -0.7023209
0.56452036 -0.4284472 -0.59347486 -0.20692486 0.61597234 -0.34913513 0.8711483 -0.40499082
-0.4177729 -0.54154485 -0.637398 -0.4301901 -0.65842086 -0.6357543 0.8417772 0.63879883
-0.2639035 0.579304 -0.12907544 0.066280395 0.652751 0.7540867 0.60946745 0.5438346
-0.21765895 0.6457033 -0.72921073 0.61829907 0.547766 -0.29483113 -0.5699311 -0.76956224
-0.2000979 -0.46242526 -0.49625078 -0.7142857 -0.41109982 0.21991755 -0.41152656 0.3453348
-0.71573037 -0.33280283 -0.43690008 -0.38455784 0.65441 -0.62239903 0.16971506 0.5383881
-0.5306673 -0.35629046 -0.46912655 -0.07267675 -0.19756126 -0.03225831 0.6186171 -0.29312146
-0.4840296 -0.06634296 -0.443761 -0.6694767 0.55698395 -0.28556663 -0.56445384 -0.35831904
0.8179664 0.6261551 0.47638747 0.77535164 -0.013077726 -0.31236184 -0.053250946 0.8209086
-0.17269054 -0.25959983 -0.37970838 -0.1610164 -0.34062657 -0.30498615 -0.34699568 -0.5083459
-0.073588856 0.62603945 -0.39037046 0.29458305 0.7106548 -0.07002135 0.59698933 -0.38161147
-0.3062076 0.4069445 -0.752771 0.6025639 0.7076969 -0.22937497 -0.5299592 -0.4645476
-0.07793157 0.5496064 -0.17011285 -0.37926918 0.908758 -0.44941464 -0.6158949 -0.5559988
0.39777887 -0.20454106 -0.47432813 0.6834416 0.311535 -0.45446748 -0.551961 -0.40027583

arith.constant1 f4 [64, 128]
00000000: 4fc9 36be 236d 8dbe 8101 86bd 6605 813d
00000010: d7ef 0a3c 8e49 bb3e 550c ab3e dc01 aabe
00000020: c48b 593e 6b6f 813e 0b7e d83c c886 a63d
00000030: 4b5f 8bbd 28bb 433c 0056 813e 08dc 8cbd
00000040: af44 62be 22af c83e a72a 58be 10f9 03be
00000050: b7e1 bb3e 9348 c13d 98bc ad3d 1a6e 9fbd
00000060: 4906 13bc aa59 b0be 9490 823e a2af 483e
00000070: 8a17 adbd 81d3 d53e c3d0 813e f15e bebd
00000080: cfa2 4f3d fd00 263d e727 e2be 111e 0e3e
00000090: 60bb bd3e 792c d13b aa89 00bf 8401 b13d
000000a0: fad2 5c3e 1277 363e 4c89 b2be 3bdf 8e3c
000000b0: 6c83 f0bd ebae c1be 0956 293e f98b 633e
000000c0: bc41 4c3e a9dc 15be 31c3 513b ea86 a1be
000000d0: b62f a83c 4081 863e 7714 d53d 2dad 1e3e
000000e0: 92bd 613c 880d fc3e a884 993e 0e47 ebbd
000000f0: 0829 69be c81b 86bb 5dbd 9f3d e323 bb3d
00000100: 5fbc 36bd dd2e afbe da8a cd3d 1497 dfbe
00000110: 9ace 023e ec3d b23d 7b69 15be c498 20be
00000120: b8c3 adbe 9fdc 18be e11c d7be 4652 6ebe
00000130: ae53 9a3d 8638 0c3e 3623 283e 0bab 84be
00000140: 27c4 34bd 70a8 1f3e 136a fd3e 56dd d13e
00000150: 0a48 1bbe 9e9d 153d 2d8d d0be 2c8b 10be
00000160: 3c12 ae3e f973 d4bd 5d3b 01be 52df 21bc
00000170: 3cf8 3a3d 65f1 4ebd c3be 203e ad4e 91bd
00000180: b83c 99bc ddf0 813e d8d6 7abe 631e e43d
00000190: 409f 0d3c 4f77 483e 4160 d3be 8b79 86be
000001a0: 0943 87be 7165 533e 17e6 553e 529e 38be
000001b0: a9ab 093f 263c 473e 9e9a 803d fada 263e
000001c0: 5881 6a3e e1a0 b4bd 138c 82be a25a cdbe
000001d0: 62e2 3d3e 9643 2a3f cb27 8fbc 3223 093e
000001e0: dcfc adbe ac50 af3d ff8b 0b3f bd83 ea3d
000001f0: 0956 a03d 8504 e73b b237 95bd d6f3 82be
00000200: 951c b0be 7a58 0e3d 4495 93be 9a6d bb3d
00000210: 56ab 743b 0195 6dbe 0c91 833e 1406 c53d
00000220: a8d2 543d 3aa6 a7bd fa4c 0e3e 9c88 90be
00000230: 0f98 0ebe ed03 b53e 6242 d43d ac40 80bc
00000240: 08c0 bf3e cf80 1dbe b401 ff3e 1443 f7bd
00000250: 612c ecbd e384 95be d750 abbd d3ae 933d
00000260: 6dc4 043e 8b56 a7bd 5a23 68be 6d57 bebe
00000270: 1f14 9a3d 6fa7 0ebd 5e8e d33e ab9f a63c
00000280: 4124 8ebd 2cc8 153e 32c9 693e 2252 8fbd
00000290: 3877 263e cf74 92be 4e66 bb3e e1e7 69bd
000002a0: 2125 3abd 611d 083f ddef 1f3e 0200 31be
000002b0: 89a7 733d 2f4c 0f3d 595a 943d 5b66 82be
000002c0: 194c b63e 3ab8 183d 5579 923d 3c5e 833e
000002d0: e5a1 25be fd12 2cbe 75f9 453d e8a9 983e
000002e0: 0170 3dbe 1b5a aabe bfb3 21be 8ab6 b0bd
000002f0: dc65 d4bd baef bbbe afe8 78bd 4afb 8cbe
00000300: 6236 ca3e fc7a 2a3d fd57 18be b10d 7b3e
00000310: 7ab1 0b3e 14b7 88bd 68b3 f7bd 5193 2d3e
00000320: 93e5 95be b01c b6bd 7ccb bbbe 7cbb 91bd
00000330: 20ff e2bd 9f8c babd 4509 c2bb 4bff 5f3e
00000340: c295 8f3d 40fc a23b 9295 cabe 0d27 65bd
00000350: ce63 ea3d f0e8 6e3d f2ba 4cbe 043a 993c
00000360: 1b0f 3e3e f5a4 4d3e 4140 373d 3596 8ebe
00000370: f864 f1bd b739 6f3d 637e a23d 6b46 ee3d
00000380: 282e a7bd c480 b3be 738b c0b9 d1f6 363e
00000390: 1f84 f43d c1b9 87be a105 8c3e 0c1e 163d
000003a0: 0e58 3d3e e67b 513d 2cfc 7abe 9df2 3ebe
000003b0: 8f3d b3bd 3e58 973a 9424 b43e ae66 7bbe
000003c0: 5e88 28be f189 8ebd 6c9e a3bd 2bf0 04be
000003d0: 6280 67be ade8 cb3e e246 5abd aa76 c6be
000003e0: 0f44 af3e d664 78be 6928 3a3e 1923 1a3d
000003f0: 403e 12bd da7e 8c3e 565e e4bd b379 ad3e
-0.1785023 -0.27622327 -0.065432556 0.06299858 0.008480034 0.36579555 0.33407846 -0.33204544
0.21244723 0.25280318 0.02642729 0.08131176 -0.06805285 0.011946477 0.25260925 -0.06877905
-0.22096513 0.39196116 -0.2111002 -0.12887979 0.36695644 0.094376706 0.08483237 -0.07784672
-0.0089736665 -0.34443408 0.2550093 0.19598249 -0.08451755 0.41762927 0.25354585 -0.092954524
0.050692376 0.040528286 -0.44171068 0.13878657 0.37057018 0.0063834754 -0.5021006 0.08642867
0.21564856 0.17818859 -0.34870374 0.017440429 -0.11743817 -0.37828764 0.16536726 0.22221364
0.1994695 -0.14634956 0.0032007212 -0.31548244 0.020530563 0.26270485 0.10404294 0.15495749
0.013778107 0.49229074 0.2998402 -0.11488162 -0.22769558 -0.0040926673 0.0779979 0.09137704
-0.04461324 -0.3421544 0.100362495 -0.4366995 0.12774125 0.08703217 -0.14591019 -0.15683275
-0.33938384 -0.1492791 -0.4201422 -0.23273572 0.07535492 0.13693437 0.16419682 -0.25911745
-0.044132378 0.15591598 0.4949499 0.40989178 -0.151642 0.03652727 -0.4073271 -0.1411559
0.33998287 -0.103736825 -0.12620302 -0.009879904 0.04564689 -0.05052318 0.1569777 -0.07095084
-0.01870571 0.25379077 -0.24496019 0.11138608 0.008643925 0.19576763 -0.41284373 -0.26264605
-0.2641833 0.20644166 0.20888554 -0.18029144 0.5377756 0.19456539 0.06279491 0.1629447
0.22900903 -0.08819748 -0.25497493 -0.4010821 0.1854339 0.6650938 -0.01747503 0.13392332
-0.3398198 0.08560309 0.5451049 0.11450908 0.0782891 0.0070500993 -0.07286014 -0.25576657
-0.34396806 0.034752347 -0.28824818 0.09151764 0.003733357 -0.23201372 0.256966 0.096203
0.05195871 -0.08186002 0.13896552 -0.28229225 -0.13925193 0.35354558 0.10364224 -0.015655838
0.37451196 -0.15381168 0.49805987 -0.12073341 -0.11531902 -0.29202947 -0.08365028 0.072110794
0.12965555 -0.08170804 -0.22669736 -0.37176076 0.07523369 -0.034827646 0.41319555 0.020339807
-0.06940509 0.14627141 0.22830656 -0.069980875 0.16256416 -0.28604743 0.3660149 -0.057105903
-0.045445565 0.5316983 0.15618844 -0.17285159 0.059485946 0.034984764 0.07243795 -0.25468716
0.35604933 0.037285067 0.071520485 0.25657833 -0.16175039 -0.16804118 0.048333604 0.29817128
-0.18499757 -0.3327187 -0.15791224 -0.086285666 -0.10370991 -0.36706334 -0.06076878 -0.27535468
0.39494616 0.041621193 -0.14877315 0.24516942 0.1364192 -0.066755444 -0.12094766 0.16950728
-0.29276714 -0.088921905 -0.36678684 -0.07115838 -0.110838175 -0.091088526 -0.005921515 0.2187473
0.07010986 0.004973918 -0.39567238 -0.055945445 0.114448175 0.058327615 -0.19993189 0.018704422
0.1856045 0.20082457 0.04473901 -0.27848974 -0.117868364 0.05840465 0.079342626 0.11634525
-0.081631005 -0.35059178 -0.00036724992 0.1786759 0.119392626 -0.26508906 0.27348045 0.03664975
0.18490621 0.05114355 -0.24510258 -0.18647237 -0.08751976 0.0011546684 0.35184157 -0.24550888
-0.1645827 -0.06959904 -0.07989201 -0.12982242 -0.22607568 0.39825955 -0.053290255 -0.38762408
0.34231612 -0.24257216 0.18179478 0.037631128 -0.035703897 0.2744053 -0.11150806 0.33881912

arith.constant2 f4 [25]
00000000: 0ffe 1fbf f3c6 9abe 0642 af3c 273b a73d
00000010: b660 3fbf 0199 bd3e 905a 49bf c35e 00bf
00000020: 7b92 4b3f a4f4 d83d 6708 b8be 555f 0ebf
00000030: 8613 e6be e2e1 803f e5be 5e3f bacd 153d
00000040: aa15 34bf 48be 4cbd c327 e73d 9f62 983f
00000050: 0336 a6be 14b0 5ebe e890 023e e09f 9c3e
00000060: a733 193f
-0.6249704 -0.3022991 0.021393787 0.08165579 -0.74756944 0.37030795 -0.7865381 -0.50144595
0.79520386 0.105935365 -0.3594391 -0.55614215 -0.4493677 1.0068934 0.8701003 0.03657315
-0.70345557 -0.049986154 0.11286881 1.1905097 -0.32463083 -0.21746856 0.1275059 0.30590725
0.5984444

sequential_1/dense_1_2/BiasAdd/ReadVariableOp f4 [64]
00000000: d7fc 8b3d 0e30 5fbe 9fbf edbd 0498 6ebc
00000010: b8ec 44be 1ded a8bd 841d fc3d a1c8 cebb
00000020: 3cbf 0a3d 3e99 313e d1db 27be 4a97 38bd
00000030: e268 e1bd ef86 9bbe 22fa 143c 8e06 3bbe
00000040: df1c a03e c86b 663e 4dad 19be 239b 6d3e
00000050: 7519 c43d 78b1 343e 0ea1 6dbe f116 80bc
00000060: c26d 92bd efc6 5d3e 5cb6 0ebe 9508 66bd
00000070: c723 ed3e 8bc3 ba3e ef9d 54bc 1598 a73d
00000080: 894a a6be 726f 3f3c 3c4a 8e3e 28be 0abc
00000090: 2dcc 4fbe 44be 3cbe 267f aebd 3d68 613c
000000a0: ec91 37be c28f 37be 0cda 8c3d 89e0 4d3e
000000b0: 4b6a c63e 06ef f7bc 4e8e a83e 5aa1 3fbe
000000c0: ea6e 36bc 3a34 bf3e a8f8 f03d 7363 9d3d
000000d0: b812 ab3e ff38 3fbe ffc0 cd3e 6689 373e
000000e0: 389c e13e 579a 63be c0f1 8e3e e5e8 473e
000000f0: a27e c13d bf77 e03e d7db 313e 8a0b 6dbd
0.06835335 -0.21795675 -0.116088144 -0.014562611 -0.19230926 -0.08248351 0.12310317 -0.006310538
0.03387378 0.17343614 -0.16392447 -0.045066155 -0.11006333 -0.30376384 0.009092839 -0.18264219
0.31272027 0.22502053 -0.15007515 0.23203711 0.09575168 0.17645824 -0.23205969 -0.01563594
-0.07149841 0.21657918 -0.13936752 -0.05616053 0.46316358 0.36477312 -0.012977107 0.08183304
-0.3247874 0.0116842855 0.2779101 -0.008468188 -0.2029273 -0.18431956 -0.085203454 0.0137577625
-0.17926759 -0.17925933 0.06877527 0.20105185 0.3875297 -0.030265342 0.3292107 -0.18713894
-0.011134842 0.37344533 0.117661774 0.07684984 0.3341272 -0.18674086 0.40186307 0.17923507
0.44064498 -0.22226845 0.27918816 0.19522436 0.094479814 0.4384136 0.17369018 -0.057872333

sequential_1/dense_1/BiasAdd/ReadVariableOp f4 [128]
00000000: 945d 163e 4bd6 d7be 681f e0bd f57c 6abe
00000010: c619 44bd d1cd 86be bd41 2abe 3137 633d
00000020: f26b 223e ab40 c0bd d8a0 17be 0612 16bd
00000030: b1f8 1abe 3cf5 2bbd f144 7abc 47d7 803d
00000040: f1a7 54be 4b14 c13d 7fd3 42be 97c9 33be
00000050: a6c9 d4bd 847a b03b cd5b 9bbe 864b d73c
00000060: 6a3b 73be 219a 093e 0680 00be 2e5a aebe
00000070: 3556 a8bd 933a c2be 3c84 8bbd 9b32 693c
00000080: f860 debd c104 80be 9611 acbe 6699 29be
00000090: 8d76 58be 9bc3 8b3d facf 71be 3319 363d
000000a0: 57ec 99bd c83d d3bd 1717 32be fd9f 8abe
000000b0: fba1 06be 1d65 0dbe 5aad febd 3c9b 0cbe
000000c0: 2ec8 d8be bc0f 62be ad1f 98be cc07 cbbd
000000d0: 9db9 12be 2de5 e6bd 287a fe3b 9779 073d
000000e0: 00af 733b a400 ecbe ba62 00be b397 dcbd
000000f0: 73a7 c13d 9c7b 4fbe 0a62 bebe 51e0 fd3d
00000100: 825f 14be f2e6 5f3d 2490 e1be a55d cebd
00000110: da7a 65bd 8103 40be 9af6 c73b 4aaf 173c
00000120: 4267 083e a1e6 febe 6e84 d9bd 0a8a bb3d
00000130: c79d c33d b9fb 78be c608 77be ceaa 32bd
00000140: e252 29be c60e a6bd 7cd5 12be 3393 ccbd
00000150: 2f15 263b bf2e 9cbe 375e adbd f77e c7bd
00000160: ac14 06bd 9c39 723d a571 923d c9e5 ecbd
00000170: 45e0 65be f7c0 11be 1622 94bc 06b6 d6bd
00000180: 7d82 52be 5cef 07be eaa5 283e 71cd e83c
00000190: 8fc1 22be 1a8e 94be 1a4a a8bd 8a96 6fbc
000001a0: 047e 9dbd 6896 50be ddbd 113d be00 52be
000001b0: ca29 f6be ee4c 45bd 270f 70be 5e90 44be
000001c0: cf2e abbd 78c8 e93c 3426 2bbe 838e df3c
000001d0: dc91 60be b1c4 f7bc 1018 90bc 2251 73be
000001e0: 7bb5 43be aacc 99be e19e bbbd dd83 ddbd
000001f0: 3921 6ebe 656e 7f3c 506e 8bbe 584f 23be
0.14684135 -0.4215568 -0.1094349 -0.2289923 -0.047876142 -0.263289 -0.1662664 0.055472557
0.1586149 -0.093873344 -0.14807451 -0.036638282 -0.1513393 -0.04198192 -0.015275226 0.06291061
-0.2076719 0.09427699 -0.19025992 -0.17557369 -0.10390024 0.0053856988 -0.30343476 0.02628113
-0.23753133 0.13437702 -0.12548837 -0.34053177 -0.08219568 -0.37935314 -0.06812331 0.014233257
-0.10858339 -0.25003627 -0.33607167 -0.16562423 -0.21138974 0.06824418 -0.23614493 0.044457626
-0.075157814 -0.10314518 -0.1739162 -0.27075186 -0.13147728 -0.13808103 -0.12435408 -0.13731092
-0.42340225 -0.22076315 -0.29711667 -0.099135965 -0.14328618 -0.112741806 0.007766027 0.03307494
0.0037183166 -0.4609424 -0.12537661 -0.10771122 0.094557665 -0.20261997 -0.37184173 0.123963006
-0.14489558 0.054663606 -0.44055283 -0.10076455 -0.056025364 -0.18751337 0.0061023952 0.009258101
0.1332064 -0.4978533 -0.10620962 0.09157188 0.09551578 -0.24314775 -0.2412444 -0.043619923
-0.16535524 -0.081082866 -0.1433925 -0.099890135 0.0025342216 -0.30504414 -0.08465236 -0.097410135
-0.032734558 0.05913697 0.07150582 -0.115672655 -0.22448833 -0.14233766 -0.01808266 -0.10483937
-0.2055759 -0.13274902 0.16469541 0.028418275 -0.15894149 -0.29014665 -0.08217259 -0.014623294
-0.07690051 -0.20369875 0.03558146 -0.20508096 -0.48078758 -0.04816907 -0.2344328 -0.19195697
-0.083585374 0.028537974 -0.16713792 0.027289635 -0.21930641 -0.030245157 -0.017589599 -0.23761418
-0.19112198 -0.3003896 -0.09161163 -0.108161665 -0.23254861 0.015590285 -0.272326 -0.15948236

sequential_1/dense_1/MatMul f4 [128, 169]
00000000: fded 13bd 5b2e f9bb 8e1c 89bb 0352 873d
00000010: 8215 313e 1faf 90bd 88c3 80be 75cd 26be
00000020: f12d b83c 4335 87be 6717 ffbd 4d79 6dbe
00000030: 2c09 7b3d 9ff7 e7bb 6bf0 9abc ab42 40bd
00000040: 9d3b 76bd b276 0a3e a87d a5bd 7f18 293e
00000050: 6181 67bd e334 53be ac02 0fbe 8c24 be3d
00000060: 3d6b 38bd 632b ebbd d5eb 413d f242 b23d
00000070: 1142 d6be 8f1d ea3d b006 93bd 069b 4dbd
00000080: a9ce b23c 2fb7 873d a9a0 a4be 0723 11bd
00000090: f1f3 40bd cdbc 01be 3a07 c2bc 2a1e 5d3d
000000a0: 4475 53be 4213 26be 3459 943e 0380 9f3e
000000b0: c77c 023d 7976 2f3e 6340 06bb 8c86 bb3e
000000c0: ae61 91be d45a eebd 8ac9 8fbe a070 8b3e
000000d0: 16e3 77be 45a5 54be 1259 333e f52e ea3e
000000e0: a5dc c7bd d856 eabc 5715 cdbb bc57 88be
000000f0: 1134 fe3c ee63 7b3e b7bc 8f3e e386 293e
00000100: caeb 85be 75b9 37be db98 673e 4f0c 18be
00000110: b674 80be f2cf 843e a7ee d13d 0169 61bd
00000120: 9bb7 fd3e fd66 2dbd 7ecd a33e d648 81bc
00000130: 206a db3c c060 803d c852 15be 8a80 8c3e
00000140: 494a 82be 3d1b 8fbe b0fb a7bd 3034 ac3d
00000150: 2c69 ccbd a3c1 0d3e 3f71 ce3e f8e6 4e3e
00000160: e5f2 44be 5eb5 9c3d f002 5bbd 4118 123d
00000170: 8f3a 0e3f 4044 2a3e 13b8 6dbe 423b 8a3e
00000180: f313 79be f901 833d 31f6 3ebe b684 2abe
00000190: ef5c 203e cce4 e2bb 841d 9d3d 2b67 8abd
000001a0: 5493 5bbe ec36 1abe 7ea4 e73d 86d0 483e
000001b0: c412 d3bc eb0e bcbd b938 cabd 6bac 00be
000001c0: 3752 df3d b73a abbd 5103 dfbd 36da 40bd
000001d0: 8df1 b7bd d354 213e 5faa 17be 0523 a5bd
000001e0: 050a 7a3e 12e3 04be 5ac7 01bd d4c8 3abe
000001f0: 473f c2be fa17 18be 6ef1 c93d be10 a4bd
00000200: 2789 863d e53d 82bd 2291 c9bd 844f c7bc
00000210: 3c6d 3e3d d51c 72bd 4628 8fbe ff72 00be
00000220: 2f6b 57be a75b 4a3d 23ca a33e aef3 cb3c
00000230: e018 913e 76b3 45be 1437 18be d162 67bd
00000240: f465 48be 1b8a 37be 78f0 8bbd 2b4e 3d3d
00000250: bda9 f93d 5a69 35be ed2c 293e b1a9 153e
00000260: 2522 a63d 4a9c bb3e ca8d d9bd 7901 6b3d
00000270: 24cc 8c3e 9a43 743d c029 e83c ca61 953d
00000280: 31b5 93bd fe07 293e 313f 223e 6f38 533e
00000290: 32ea 4b3e 7fce 4cbd 6895 99be 9813 0cbe
000002a0: 22c8 06bc e2dd 64bc 470c 4a3e 7b53 7abd
000002b0: 30ce 7c3c 6b66 0c3d f256 4bbe 5c07 343e
000002c0: 09e8 783e 5561 27be a3d6 d53d b09a 61bd
000002d0: 1eac ae3d 1d75 bc3e fea1 3c3c 2481 8b3e
000002e0: 9637 0f3e 96a7 cd3b c888 9b3d 2b89 74be
000002f0: ab4c f5bd e68c c0bd c2fd 05bd 1b50 61be
00000300: 4645 c9bb baba 07be b9e1 203d 1428 0fbd
00000310: d0b6 433d ba7e 933d a7be 25bd 66e2 1abd
00000320: 3767 c13d 5a50 63be de6b 54bd 4935 913e
00000330: bf0d 08be b27a 723c f38f ba3e fadb bf3d
00000340: 604a d73c b198 ffbc cc01 333d 6c51 12be
00000350: 6f09 43be d9f4 ebbd 5a98 a4bd e49b 0e3d
00000360: fb0f b73d 4be9 0d3d e4ad 66be 70b5 a63d
00000370: d9e1 2f3e c47d 523f 49fa c33e 81db d2bd
00000380: ff0a 2bbe 60f0 0bbe 3555 1abe 30a7 253c
00000390: 0301 aebd 69cc 46bd cc23 cabd 1c68 fb3a
000003a0: 742e 59bd 206d 903d e07f 373d 39ff 043e
000003b0: 3bf6 debd 7456 97bd 5e90 dfbd 404e ee3c
000003c0: fc4b e03d abc2 b3bd 8802 07be be69 d33d
000003d0: 7ee8 fdbd aa96 d3bd 721d 373d bc7b ecbd
000003e0: 80fa 66bb 7239 05bd 8375 f8bd 8b28 453e
000003f0: 479b a43d 77bd 4bbe 3098 21bc 2fb1 f8bd
-0.036115635 -0.007604403 -0.004184312 0.06607439 0.17293361 -0.07064652 -0.25149179 -0.16289313
0.022482844 -0.26407823 -0.124556355 -0.23190804 0.061288044 -0.0070790793 -0.018913468 -0.04693858
-0.060115445 0.13521841 -0.08080608 0.16513251 -0.05651987 -0.20625643 -0.13965863 0.092843145
-0.045024145 -0.11482885 0.047344048 0.08704175 -0.4184728 0.11431419 -0.0717901 -0.05019667
0.021827059 0.066267364 -0.32153824 -0.035433795 -0.04710764 -0.12669678 -0.023685087 0.053983845
-0.20650202 -0.16218284 0.28974307 0.31152353 0.03185728 0.17135037 -0.0020485155 0.3662609
-0.28394836 -0.11638418 -0.2808345 0.27234364 -0.2420772 -0.2076617 0.17514446 0.4573895
-0.097588815 -0.028605863 -0.0062586474 -0.26629436 0.031030687 0.24549839 0.28073665 0.16555361
-0.26156455 -0.1794184 0.22616903 -0.14848445 -0.25089043 0.259399 0.102505974 -0.05503178
0.49554142 -0.042334545 0.31992716 -0.015781801 0.026784003 0.062684536 -0.1458236 0.27441818
-0.254473 -0.2795047 -0.082023025 0.084083915 -0.099809974 0.13843398 0.40320775 0.20205295
-0.19233282 0.076517805 -0.0534696 0.03566766 0.55558103 0.16627598 -0.2321475 0.26998335
-0.24324016 0.06396861 -0.18648602 -0.16652188 0.15660451 -0.0069242474 0.07671645 -0.06757959
-0.2144292 -0.15060014 0.11310671 0.19610795 -0.025765784 -0.09182533 -0.098741 -0.12565772
0.10904353 -0.08360808 -0.108893044 -0.047083102 -0.08981619 0.15755014 -0.14811085 -0.0806332
0.24417885 -0.12977245 -0.031684257 -0.18240672 -0.37938902 -0.14852896 0.09860502 -0.08011006
0.065691285 -0.06359462 -0.09842135 -0.024329908 0.046490893 -0.059109528 -0.27960414 -0.12543868
-0.21036981 0.049403813 0.31990156 0.024896469 0.2833929 -0.1930674 -0.1486476 -0.056490723
-0.19570142 -0.17923777 -0.06832975 0.046217125 0.12190578 -0.1771597 0.16521044 0.14615513
0.08111981 0.36642677 -0.10622747 0.05737445 0.27499497 0.059634782 0.02834022 0.072940424
-0.07212294 0.16506955 0.15844418 0.20626996 0.19913557 -0.050001618 -0.299968 -0.1367935
-0.008226426 -0.013968917 0.19731246 -0.06111477 0.015430018 0.03427736 -0.19857386 0.17580932
0.24307264 -0.16345723 0.10441329 -0.055079162 0.085289225 0.368081 0.011513231 0.27246964
0.13986048 0.0062760813 0.07594448 -0.2388045 -0.11977514 -0.09401874 -0.032712705 -0.22003214
-0.0061422912 -0.13254824 0.039277766 -0.03495033 0.047781765 0.072019055 -0.040465023 -0.037813567
0.09443515 -0.2219862 -0.051860683 0.28360966 -0.13286494 0.014799761 0.3643795 0.09368129
0.026280582 -0.031200739 0.043702886 -0.14288872 -0.19046567 -0.1152131 -0.08036871 0.034816638
0.08938595 0.034646314 -0.22527272 0.08140075 0.17175998 0.82223153 0.3827689 -0.10295773
-0.16703413 -0.13665915 -0.15071566 0.010110661 -0.08496287 -0.048534784 -0.09870109 0.0019180807
-0.053022817 0.07052064 0.044799685 0.12987985 -0.108868085 -0.073895365 -0.10916208 0.029090047
0.10951993 -0.08777364 -0.1318456 0.10322903 -0.1239786 -0.10331471 0.044705816 -0.11547038
-0.0035244524 -0.032525487 -0.121317886 0.19253747 0.08037429 -0.19896494 -0.0098629445 -0.1214317
