app/src/main/assets/intent_detection_model.tflite (tflite, 117116 bytes, 6 tensors)

arith.constant f4 [18, 64]
0	0xbe9e1e6e	-0.3088259
1	0xbeff7b13	-0.49898586
2	0xbe2ddacc	-0.16977996
3	0xbeb253ae	-0.34829468
4	0xbe576901	-0.2103615
5	0xbe225316	-0.15852007
6	0xbe966fe4	-0.2938224
7	0xbe4e6386	-0.20155153
8	0x3e910598	0.2832458
9	0xbc86d55c	-0.01645916
10	0xbe10c445	-0.14137371
11	0xbe058745	-0.13039882
12	0xbec79ab5	-0.3898522
13	0xbde9352c	-0.11387095
14	0xbec21dc4	-0.37913334
15	0xbe8ee245	-0.27907005
16	0xbe0f3eb2	-0.1398876
17	0xbdbca24e	-0.09210645
18	0x3f1174c7	0.56818813
19	0xbe6b103b	-0.2295541
20	0xbec7e28b	-0.39040026
21	0xbed24ed1	-0.41075757
22	0xbe411075	-0.18853934
23	0x3f381d4b	0.719197
24	0x3f046453	0.5171558
25	0x3d06926b	0.03285448
26	0xbdd68bbc	-0.10475871
27	0xbe77ee85	-0.24212082
28	0xbedc7a5c	-0.43062103
29	0x3f0b3d5d	0.5439051
30	0xbe8cf625	-0.27531543
31	0xbe905b85	-0.28194824
32	0xbe3fe873	-0.18741016
33	0x3f53e04a	0.8276411
34	0xbdb7c1b2	-0.08972491
35	0x3cc30e1c	0.023810439
36	0xbea1f988	-0.3163569
37	0x3f552b0e	0.8326882
38	0x3eb71d33	0.35764465
39	0x3f1144a1	0.56745344
40	0x3f1aea1b	0.60513467
41	0x3e364a4c	0.1780178
42	0x3f097049	0.5368696
43	0x3e17eaaa	0.14835611
44	0x3f5bd1c3	0.85866946
45	0xbe58e3e7	-0.21180688
46	0xbea2224a	-0.31666785
47	0x3a932afb	0.0011228019
48	0xbeccfd51	-0.40037015
49	0xbcf1547e	-0.029459234
50	0xbe49d9a1	-0.19711925
51	0x3e4aa51c	0.19789547
52	0xbddb743d	-0.1071553
53	0xbe926ce3	-0.285987
54	0xbd80bfff	-0.0628662
55	0xbedc8486	-0.43069857
56	0xbdfdfa0a	-0.12401207
57	0xbe6b8a02	-0.23001865
58	0x3e3c3f22	0.18383458
59	0xbcb0027a	-0.021485556
60	0x3ea608df	0.32428643
61	0x3ed14e3a	0.40879995
62	0x3f0a8665	0.5411132
63	0x3f270b53	0.65251654
64	0xbeee211f	-0.46509644
65	0xbefbaf4e	-0.49157184
66	0x3f080329	0.5312982
67	0xbe0f2259	-0.13977946
68	0xbec31f62	-0.3810988
69	0xbea0e794	-0.3142668
70	0xbf01f8b8	-0.5077014
71	0x3f380c90	0.7189417
72	0x3e1f0812	0.15530422
73	0xbe5f57d5	-0.21810849
74	0xbe1a6548	-0.15077698
75	0xbe6addb0	-0.2293613
76	0x3e0999cd	0.13437577
77	0xbe8ab6e1	-0.2709265
78	0x3f45dd94	0.77291226
79	0xbe90f89b	-0.2831467
80	0xbe414d2e	-0.18877098
81	0xbedb7949	-0.4286597
82	0xbf3b0ade	-0.73063457
83	0xbe53ff5d	-0.20702882
84	0xbee04989	-0.43806103
85	0x3dc1c21f	0.09460854
86	0x3f0790a3	0.52955073
87	0x3f33663d	0.7007788
88	0xbea7e2e4	-0.3279029
89	0x3f337b62	0.7011014
90	0xbf10cb8c	-0.5656059
91	0xbe9a132a	-0.30092746
92	0xbf08834f	-0.5332536
93	0x3e8dfee1	0.2773352
94	0xbe8e1b31	-0.2775512
95	0xbe8af777	-0.27141926
96	0xbe8dc883	-0.2769204
97	0xbd5a07e8	-0.053230196
98	0x3f453682	0.770363
99	0x3f319f44	0.69383645
100	0x3e9a559a	0.30143434
101	0x3f069c85	0.5258258
102	0x3eefc71f	0.46831605
103	0x3ee6b8d0	0.45062876
104	0xbf1047c7	-0.56359524
105	0xbea1efd2	-0.3162828
106	0xbe9c1178	-0.30482078
107	0x3f0d0641	0.5508767
108	0xbe4f472e	-0.20241997
109	0xbf109bbf	-0.5648765
110	0xbf03b93c	-0.5145452
111	0x3e93a989	0.28840283
112	0xbe4946ca	-0.1965591
113	0xbf036d3c	-0.51338553
114	0xbf1f6b65	-0.62273246
115	0xbe043de0	-0.12914228
116	0x3b51c9ad	0.0032011077
117	0x3f2d18c4	0.67615914
118	0xbedea0b8	-0.43481994
119	0xbf36b010	-0.713624
120	0x3f3eebe8	0.74578714
121	0x3f24cfc0	0.643795
122	0xbe9342a2	-0.28761774
123	0x3f3aa6ae	0.72910583
124	0x3f0260a3	0.50928706
125	0x3d20d4ac	0.03926532
126	0xbdf645c0	-0.120250225
127	0xbee2a4dd	-0.44266406
128	0x3f4faaea	0.8112017
129	0x3ed5ce60	0.41759014
130	0xbca12bf4	-0.019674279
131	0xbeb08ffd	-0.34484854
132	0xbea8190f	-0.32831618
133	0xbea44cc7	-0.32089826
134	0xbef3e116	-0.47632664
135	0xbb2668a4	-0.002539196
136	0xbf35b355	-0.70976764
137	0xbe0e2867	-0.138826
138	0xbe865c3e	-0.2624225
139	0xbe9911bc	-0.29896343
140	0x3f3160ab	0.6928813
141	0xbefe8eb6	-0.49718255
142	0xbed7fb29	-0.42183807
143	0xbe8559d1	-0.26045087
144	0xbe2a1166	-0.166082
145	0xbef79abf	-0.4836025
146	0xbf2d2c58	-0.6764579
147	0x3f3358fa	0.7005764
148	0xbeeb123e	-0.45912355
149	0x3f2cfd4d	0.67574006
150	0xbf081b65	-0.531668
151	0x3f34f59f	0.7068729
152	0xbf33e18e	-0.70266044
153	0xbeb8a86b	-0.36065993
154	0xbf3767e3	-0.71642894
155	0xbe44fbc7	-0.1923667
156	0xbef6fc7c	-0.48239505
157	0xbf273cd6	-0.65327203
158	0xbf077f86	-0.5292896
159	0x3f212448	0.62945986
160	0xbf2186aa	-0.63096106
161	0x3f212e1a	0.6296097
162	0xbe954ef9	-0.29161814
163	0xbf104335	-0.5635255
164	0x3d876ffd	0.06613157
165	0x3f099e5e	0.53757274
166	0x3e8ff6f7	0.28118107
167	0x3f15dce7	0.58540195
168	0x3f0f3f07	0.5595555
169	0xbebb4f9f	-0.36584184
170	0x3e78b517	0.2428783
171	0x3dffddc7	0.124934725
172	0x3f1e95b7	0.61947197
173	0xbefec792	-0.49761635
174	0x3e6dd150	0.23224378
175	0xbe769d82	-0.24083522
176	0xbd9673f9	-0.07346339
177	0x3f1f9575	0.6233743
178	0x3eb64536	0.3559968
179	0x3d9023ac	0.07038054
180	0xbda5303e	-0.08065842
181	0xbef00f63	-0.4688674
182	0xbf379aa7	-0.71720356
183	0xbf26d4c5	-0.6516841
184	0x3f2e4c47	0.6808514
185	0x3f316f80	0.6931076
186	0xbf2458b7	-0.6419787
187	0x3f358f20	0.70921516
188	0xbdec9616	-0.11552064
189	0xbf2265a2	-0.6343633
190	0x3f0c143a	0.54718363
191	0xbe515096	-0.20440897
192	0xbea9027f	-0.33009717
193	0x3ed12f9e	0.40856642
194	0x3efaf1a2	0.49012476
195	0xbd2f0914	-0.042733267
196	0xbf206fd2	-0.62670624
197	0xbefb30ed	-0.49060765
198	0x3f381f36	0.71922624
199	0x3ef3100c	0.4747318
200	0x3ea5eaa2	0.32405573
201	0x3f2f6a5b	0.6852166
202	0x3e12fc0e	0.14353964
203	0xbf0946c6	-0.53623617
204	0x3f3cff58	0.73827124
205	0xbee235e0	-0.44181728
206	0xbe9e35fd	-0.30900565
207	0x3dacf20d	0.08444605
208	0xbde0da30	-0.10979116
209	0xbe9ab507	-0.30216238
210	0xbecdfa21	-0.40229896
211	0xbe9a6f71	-0.30163148
212	0xbe73ac03	-0.23796086
213	0xbeab9579	-0.33512476
214	0x3f30153b	0.68782395
215	0x3f083804	0.53210473
216	0xbee6afdf	-0.45056054
217	0x3f41174b	0.7542617
218	0xbf359a3b	-0.7093846
219	0xbeefc857	-0.46832535
220	0xbef5cb00	-0.4800644
221	0x3e916e2c	0.28404367
222	0xbeeeec2b	-0.46664557
223	0x3f5d973d	0.86558896
224	0x3f081c4b	0.5316817
225	0x3f0bb15b	0.545675
226	0xbed07016	-0.40710515
227	0xbd390f7c	-0.045180783
228	0xbebc7ead	-0.36815396
229	0x3e4f7391	0.20258929
230	0xbeb4ac4e	-0.35287708
231	0xbe6879a8	-0.22702658
232	0xbec93381	-0.39297107
233	0xbf0c690a	-0.54847777
234	0x3f1447e9	0.57922226
235	0xbee6180f	-0.4494023
236	0xbe93340c	-0.28750646
237	0xbed92e0c	-0.42417943
238	0xbe50634b	-0.20350377
239	0xbe056edd	-0.13030572
240	0xbf02e470	-0.5112982
241	0xbf024e88	-0.5090108
242	0x3f19144c	0.59796596
243	0x3dcc6202	0.09979631
244	0x3d9ff320	0.07810044
245	0xbeb66f7a	-0.35631925
246	0xbea7dea5	-0.32787052
247	0xbf338ec3	-0.7013971
248	0x3f4832f9	0.7820278
249	0xbf12657c	-0.571861
250	0x3ebb84f2	0.36624867
251	0x3f221f69	0.6332918
252	0xbebf1022	-0.37316996
253	0xbef82ccd	-0.4847168
254	0xbed6c63c	-0.41948116
255	0xbeac258b	-0.33622393

arith.constant1 f4 [64, 128]
0	0xbdbaff7e	-0.091307625
1	0x3e83691c	0.2566613
2	0xbe357e25	-0.17723902
3	0xbdb53f2f	-0.08849942
4	0x3c9c1708	0.01905395
5	0xbd8fec4a	-0.070274904
6	0xbe07a70c	-0.13247317
7	0x3ea12d78	0.31480002
8	0xbe329a18	-0.17441595
9	0xbe918a90	-0.28426027
10	0xbe1d3016	-0.15350375
11	0xbe043d1b	-0.12913935
12	0x3da862f8	0.08222002
13	0x3e6dca4d	0.23221703
14	0xbe0995d1	-0.13436057
15	0xbdea55ec	-0.114421695
16	0x3db722b2	0.089421645
17	0x3e1fae02	0.15593722
18	0xbe2a5b26	-0.16636333
19	0x3e44343c	0.19160551
20	0x3e38524a	0.18000141
21	0xbd22094e	-0.039559655
22	0xbd1f9e91	-0.03896958
23	0xbe67c721	-0.22634555
24	0xbd61e619	-0.05515108
25	0x3ea9e3bb	0.33181557
26	0x3e8e8c5a	0.27841455
27	0xbe445e53	-0.19176607
28	0xbd422d92	-0.04740674
29	0xbc209461	-0.009801001
30	0xbe1543b8	-0.14576614
31	0xbc440643	-0.011964384
32	0xbd48c9a6	-0.049020432
33	0xbb8203c9	-0.0039677364
34	0x3e81238f	0.25222442
35	0xbde6df60	-0.11273074
36	0xbe0363fc	-0.1283111
37	0x3e45c054	0.19311649
38	0xbeb460bb	-0.3523005
39	0x3e8f4195	0.27979723
40	0xbc470c86	-0.012148982
41	0xbd39ac12	-0.045330115
42	0xbeaada8e	-0.3336987
43	0xbd5fe4f1	-0.054661695
44	0x3e1f4641	0.15554143
45	0xbe938a40	-0.28816414
46	0x3e63f1f4	0.22260267
47	0xbd364288	-0.044497043
48	0x3e1ec3a9	0.15504326
49	0xbdfb391b	-0.122667514
50	0xbd3042b1	-0.043032352
51	0x3e1ad38c	0.15119761
52	0xbe2fc8a5	-0.17166384
53	0xbe5073d8	-0.20356691
54	0x3bacf499	0.0052781818
55	0xbb985e01	-0.004649878
56	0xbe71d114	-0.23614913
57	0x3d5d0601	0.053960804
58	0xbae8f4e2	-0.0017773176
59	0xbe146405	-0.1449128
60	0xbdc45ed4	-0.095883995
61	0xbde650c9	-0.11245877
62	0x3bbbd1b2	0.0057317847
63	0xbe50064a	-0.20314899
64	0xbe8e6b88	-0.27816415
65	0xbe7a2371	-0.24427582
66	0xbe2ec161	-0.17065956
67	0x3dbe9b11	0.0930692
68	0x3eec7c7a	0.46188718
69	0xbe222cca	-0.15837398
70	0x3d566362	0.052340873
71	0xbe232bd9	-0.15934695
72	0x3de1b033	0.110199355
73	0x3e2fe52a	0.17177263
74	0xbd7afcdd	-0.061276305
75	0xbddf848a	-0.10913952
76	0xbe45a4a2	-0.19301084
77	0xbde2b6fa	-0.11070056
78	0xbe7eb1db	-0.24872534
79	0x3e9ec739	0.3101137
80	0x3e37bc70	0.17942977
81	0x3d5405f7	0.0517635
82	0xbac5363b	-0.0015046069
83	0xbe8474e7	-0.2587044
84	0x3e699335	0.22810061
85	0x3e0680e4	0.13135105
86	0x3d3dbc54	0.04632218
87	0x3b301fea	0.002687449
88	0x3cfe6ab3	0.031056738
89	0xbe2d38e9	-0.16916241
90	0xbdafc055	-0.08581606
91	0xbe06c357	-0.13160454
92	0xbe5f5448	-0.21809494
93	0xbd814500	-0.06311989
94	0xbebc51d0	-0.36781168
95	0xbe1c1b7d	-0.15244861
96	0xbde1601b	-0.11004659
97	0xbe8f3466	-0.27969664
98	0x3e2389de	0.15970561
99	0x3debcad4	0.11513296
100	0x3d916cb3	0.07100811
101	0xbe65e8a7	-0.22452031
102	0xbe233b0c	-0.15940493
103	0xbe0c8ef7	-0.13726412
104	0x3d82b49c	0.06382105
105	0x3e59ab52	0.2125676
106	0xbe824049	-0.2543967
107	0x3ead0e96	0.3380019
108	0xbc890add	-0.016728813
109	0xbe5cead2	-0.21573952
110	0xbd94c30a	-0.07263763
111	0xbdd2b7d8	-0.10288972
112	0x3e216bc5	0.15763767
113	0x3ea09897	0.31366417
114	0xbdb3c03b	-0.087768994
115	0xbd5fa2a5	-0.05459847
116	0xbea2c307	-0.3178942
117	0xbd6d6531	-0.05795783
118	0xbcd475ca	-0.025935072
119	0x3e19289c	0.14956897
120	0xbe5f6282	-0.21814921
121	0x3e4cbd20	0.1999402
122	0x3dfb2e9f	0.12264752
123	0x3d1370b1	0.035996143
124	0x3ebe100c	0.37121618
125	0x3da10556	0.07862346
126	0xbe6b1e44	-0.22960764
127	0x3dc034d0	0.09385073
128	0xbe908d84	-0.28232968
129	0x3e9317a3	0.2872897
130	0x3d2056e0	0.03914535
131	0xbe001ca3	-0.12510924
132	0xbe402e7d	-0.18767734
133	0xbea9f50d	-0.3319477
134	0x3dd7ebb5	0.105430044
135	0x3e3b5076	0.18292412
136	0x3c786262	0.015160175
137	0xbeb068bc	-0.34454906
138	0xbe8659fc	-0.26240528
139	0xbe23c9c5	-0.15994938
140	0xbf04299e	-0.51626
141	0x3e3af528	0.18257582
142	0xbeebd257	-0.46058914
143	0xbe2e9aad	-0.17051192
144	0xbe25609a	-0.16150132
145	0xbd963b79	-0.07335562
146	0x3d18ba2b	0.03728692
147	0xbd6daf0b	-0.058028262
148	0x3ea2c055	0.31787363
149	0xbc8b933c	-0.01703798
150	0x3da15bac	0.07878813
151	0xbedad5cc	-0.4274124
152	0xbe56cc48	-0.20976365
153	0xbea728b2	-0.32648236
154	0xbd56bfee	-0.052429132
155	0xbe9cc3f1	-0.3061824
156	0x3f05a9b8	0.52212095
157	0x3d6d7756	0.057975136
158	0xbdfda6e2	-0.12385346
159	0xbd76974b	-0.060202878
160	0xbb4002a9	-0.002929846
161	0x3c62c4b9	0.013840848
162	0xbcc6aa10	-0.024251014
163	0x3e8e7305	0.27822128
164	0xbe933ca5	-0.28757206
165	0xbe083f38	-0.13305366
166	0xba2505fc	-0.0006295142
167	0x3e8c9d25	0.27463642
168	0x3e586ce2	0.21135285
169	0x3d96332c	0.07333979
170	0xbeab1e8b	-0.3342174
171	0x3ebab1cd	0.36463776
172	0x3e1ec68a	0.15505424
173	0xbbe56751	-0.0070008417
174	0x3c9a5751	0.018840464
175	0xbec94ce0	-0.39316463
176	0xbba92c5b	-0.0051627583
177	0x3e2f7052	0.1713269
178	0x3e76c1fc	0.24097437
179	0xbeac188a	-0.33612472
180	0xbe845b89	-0.25851086
181	0xbe176af2	-0.1478689
182	0xbe8597e1	-0.26092437
183	0xbd208803	-0.03919221
184	0xbe1c4ab8	-0.15262878
185	0x3b2abd10	0.0026052631
186	0xbe81fd80	-0.25388718
187	0x3d84a0fb	0.06476017
188	0x3d86dbb5	0.065848745
189	0x3e9a7ea5	0.30174747
190	0x3dd77a44	0.10521367
191	0x3e8bcd6b	0.2730516
192	0x3d35fdc1	0.04443145
193	0xbe48d337	-0.19611822
194	0xbd9d6089	-0.07684428
195	0x3e522a90	0.20524049
196	0x3e0cee56	0.13762793
197	0x3c97c9c3	0.018528825
198	0x3d4bceb5	0.049757678
199	0xbc907ac8	-0.017636672
200	0x3df1ff65	0.11816291
201	0x3e0c14db	0.1367983
202	0x3ea4191b	0.32050404
203	0xbca39081	-0.019966366
204	0x3d2dacee	0.042401247
205	0x3e9a4753	0.3013254
206	0x3dea39f3	0.11436834
207	0xbe125923	-0.14291815
208	0x3d16b484	0.036793247
209	0xbe6a84d7	-0.22902237
210	0x3e2ba466	0.16761932
211	0x3dfb17db	0.122604094
212	0x3d98955d	0.07450364
213	0xbdcd3bb3	-0.10021152
214	0x3e36e67d	0.17861362
215	0x3d83a011	0.064270146
216	0xbe385268	-0.18000185
217	0x3eb31e64	0.34984124
218	0xbe4e2632	-0.20131758
219	0x3d5029db	0.050821166
220	0xbe6ddf1b	-0.23229639
221	0xbd943df3	-0.072383784
222	0xbbf5790c	-0.0074912366
223	0xbeb89995	-0.36054674
224	0x3d4b9d9d	0.04971086
225	0xbe24ada7	-0.16081868
226	0xbe0af4f6	-0.13570008
227	0x3e2d997c	0.16953081
228	0xbd860293	-0.0654346
229	0xbdf37711	-0.118879445
230	0x3db7f1c1	0.08981658
231	0xbdd3e4f3	-0.10346403
232	0x3de6cf0b	0.11269959
233	0xbe2fd9c2	-0.17172912
234	0xbe908a70	-0.2823062
235	0x3c244692	0.010026591
236	0x3da6c850	0.08143675
237	0xbb951a00	-0.0045502186
238	0xbec78803	-0.38970956
239	0xbc27dc65	-0.010245417
240	0x3df335bf	0.11875486
241	0xbe2cde5a	-0.16881695
242	0x3e1ea50d	0.1549265
243	0x3edb60d5	0.42847314
244	0xbe02f5e4	-0.12789112
245	0xbe44d943	-0.19223504
246	0x3d92cab4	0.07167569
247	0xbe4b1169	-0.1983086
248	0xbe2a77e2	-0.16647294
249	0x3e681cab	0.22667186
250	0xbdd08a19	-0.1018259
251	0xbba9cdb9	-0.0051819948
252	0x3e885b61	0.26632217
253	0x3eb5b7e0	0.35491848
254	0x3e0dde84	0.13854414
255	0xbd15cca0	-0.0365721

arith.constant2 f4 [18]
0	0xbd3da4c7	-0.046299722
1	0x3e6de5ba	0.23232165
2	0x3efdec45	0.49594322
3	0x3e758cb1	0.23979451
4	0xbf165c75	-0.5873483
5	0x3e9220fb	0.28540787
6	0xbf452a61	-0.7701779
7	0x3e1b0e1d	0.15142103
8	0x3e330a4e	0.174844
9	0xbebfac51	-0.37436154
10	0xbe8f256d	-0.2795824
11	0x3df51824	0.11967495
12	0x3eb3db9c	0.35128486
13	0xbf15e68f	-0.5855493
14	0xbf1d2f64	-0.6140044
15	0x3edbf6af	0.42961642
16	0x3d8b1bc5	0.06792406
17	0x3f358694	0.70908475

sequential_1/dense_1_2/BiasAdd/ReadVariableOp f4 [64]
0	0x3d56fdb7	0.052488055
1	0x3e7b0dd9	0.24517001
2	0xbdca5cc3	-0.09880974
3	0xb92ee63e	-0.00016679705
4	0x3d8a14fb	0.06742283
5	0x3e886d77	0.26646015
6	0x3b4eb625	0.0031541672
7	0x3e501c14	0.20323211
8	0x3dc1ef95	0.09469525
9	0x3e7ed8ec	0.24887437
10	0xbd0422c3	-0.032259714
11	0x3c9c69b1	0.019093366
12	0x3e1a51be	0.15070245
13	0xbdda1334	-0.10648194
14	0xbe16b6e1	-0.147182
15	0xbdea54cc	-0.11441955
16	0xbe1481b8	-0.14502609
17	0xbe0186db	-0.126491
18	0x3d4a90e9	0.049454603
19	0x3de72a9d	0.11287425
20	0xbdc24d5e	-0.09487413
21	0x3bf30605	0.007416489
22	0xbe60973d	-0.21932693
23	0x3df1c0a5	0.11804322
24	0x3df5242a	0.11969788
25	0xbce3913c	-0.027779214
26	0x3e03b8fa	0.12863532
27	0xbbfb93d2	-0.0076775337
28	0x3de67114	0.11252037
29	0x3e83fe6e	0.25780052
30	0x3e7df8be	0.24801919
31	0x3e1a9571	0.1509607
32	0x3da8e9b0	0.08247697
33	0x3e8c678a	0.27422744
34	0xbd6f83bd	-0.058475245
35	0xbde1c66e	-0.110241756
36	0x3e3276f9	0.17428197
37	0x3d24f344	0.04027106
38	0xbc197e00	-0.00936842
39	0x3c8446a4	0.016146965
40	0xbbd9a5da	-0.0066420855
41	0x3e25a545	0.16176327
42	0x3dd61c62	0.10454632
43	0xbcd11319	-0.025521802
44	0x3d9a68d3	0.07539525
45	0x3da0118a	0.07815845
46	0x3e927fe9	0.28613213
47	0x3dd2951a	0.10282345
48	0xbd7b1119	-0.061295602
49	0x3c6f3063	0.014598939
50	0x3e2639e4	0.16233021
51	0xbccbb84e	-0.024868157
52	0xbd8f983b	-0.070114575
53	0x3d4dca0c	0.050241515
54	0x3e4e45d8	0.20143831
55	0x3db78b72	0.08962144
56	0x3ed22245	0.4104177
57	0x3e9859ad	0.29755917
58	0xbcd73f53	-0.026275313
59	0x3e407736	0.18795475
60	0xbd8a3898	-0.06749076
61	0xbdf3b1a3	-0.11899116
62	0xbd538fd4	-0.051650837
63	0xbd9f669a	-0.077832416

sequential_1/dense_1/BiasAdd/ReadVariableOp f4 [128]
0	0xbe423b43	-0.18967919
1	0xbd99a0e4	-0.075013906
2	0x3d9b0529	0.075693436
3	0x3d1e2a1c	0.038614377
4	0xbd9f7ef7	-0.077878885
5	0xbc8e0dc8	-0.017340556
6	0x3d8a1d8d	0.067439176
7	0xbe189fb4	-0.14904672
8	0x3cb81164	0.02246923
9	0xbca23fff	-0.019805906
10	0xbe586c17	-0.21134983
11	0xbd213a1f	-0.03936207
12	0xbe4d8074	-0.20068532
13	0xbe4eacd7	-0.2018312
14	0xbe8897ba	-0.26678258
15	0x3dea784c	0.11448726
16	0xb9f12abf	-0.0004599895
17	0x3e01f24d	0.12690087
18	0xbda51e2a	-0.08062394
19	0xbe07b9f7	-0.13254534
20	0xbe366c2a	-0.17814699
21	0xbe0b6011	-0.13610865
22	0xbdff6b9e	-0.12471698
23	0xbe048668	-0.12941897
24	0x3e4c30b9	0.19940461
25	0x3dd4fcd1	0.103997834
26	0xbd4adc1c	-0.04952632
27	0x3d864c58	0.0655753
28	0xbea7e161	-0.32789138
29	0x3cfa5d9c	0.030562215
30	0xbe7e6eef	-0.24847005
31	0xbbd48b9e	-0.00648637
32	0x3ddf58ad	0.109055854
33	0xbdb0441c	-0.08606741
34	0xbd6f3010	-0.058395445
35	0xbad5694a	-0.0016281989
36	0xbe9e640c	-0.30935705
37	0x3acfaa96	0.0015843685
38	0xbd3baf19	-0.045821283
39	0x3d1758d5	0.03694995
40	0x3de8234e	0.11334859
41	0x3df84c89	0.12123973
42	0xbe353b46	-0.17698392
43	0x3e5c6ced	0.21525927
44	0xbda832de	-0.08212827
45	0x3e6defc1	0.2323599
46	0xbda17d30	-0.07885206
47	0x3c0470fe	0.00808358
48	0xbd00d797	-0.031455602
49	0x3e34e144	0.17664057
50	0x3e8487c6	0.25884837
51	0xbe442fff	-0.19158934
52	0xbdbf12d3	-0.09329762
53	0x3d8cfddd	0.06884358
54	0xbce761c1	-0.028244855
55	0xbdfa1fcb	-0.12213095
56	0xbe962ca3	-0.2933093
57	0xbe023724	-0.12716347
58	0xbec9b04e	-0.39392322
59	0xbdc4a902	-0.09602548
60	0xbe8a929c	-0.2706498
61	0xbd726134	-0.05917473
62	0x3c649422	0.013951333
63	0xbdb5c509	-0.08875472
64	0xbe253fd3	-0.16137628
65	0xbe3f094f	-0.18655895
66	0x3e071956	0.13193259
67	0x3d0321c1	0.032014612
68	0xbde8c2e6	-0.11365299
69	0x3dd3e9e0	0.103473425
70	0xbe2801be	-0.16406915
71	0x3d879632	0.06620444
72	0x3e40339e	0.1876969
73	0xbdc20e85	-0.09475426
74	0x3d5abc42	0.053402193
75	0x3d976ace	0.07393418
76	0x3e40f13b	0.18842022
77	0xbe393bda	-0.18089238
78	0x3e005512	0.12532452
79	0xbd9fb34e	-0.077978715
80	0xbe660a00	-0.22464752
81	0xbe2191e7	-0.15778314
82	0x3d9bec2f	0.07613408
83	0xbe616610	-0.2201159
84	0xbeb862cb	-0.36012873
85	0xbd812012	-0.06304945
86	0xbc4f4b8a	-0.012652287
87	0x3e17f5a2	0.14839795
88	0xbcfe28a7	-0.031025244
89	0x3e583615	0.2111438
90	0x3d717d2a	0.058957256
91	0x3dfd9c68	0.12383348
92	0x3e8293cb	0.25503382
93	0x3cda7ee3	0.026671832
94	0xbe75337c	-0.23945421
95	0xbdcb6e29	-0.09933121
96	0xbd4dd3cc	-0.050250813
97	0xbd2ae2ad	-0.04172008
98	0x392abdf4	0.00016283226
99	0xbec24632	-0.3794418
100	0xbdd93a59	-0.10606832
101	0xbe3411c4	-0.17584902
102	0xbe3df229	-0.18549408
103	0xbdd306fa	-0.10304065
104	0xbe4c9df6	-0.19982132
105	0xbb7b76d6	-0.0038370392
106	0x3d588bfb	0.05286787
107	0xbe9c0618	-0.304734
108	0x3e3a3eed	0.18188067
109	0x3e07ea7f	0.13273047
110	0xbe0e5235	-0.13898547
111	0xbe3de6a7	-0.18545018
112	0xbdae57c8	-0.08512837
113	0xbe09288f	-0.13394378
114	0x3d530429	0.05151764
115	0x3e0350ae	0.12823746
116	0x3e6c380a	0.23068252
117	0xbe7025c3	-0.23451905
118	0xbeed0520	-0.46292973
119	0xbebd137b	-0.36928925
120	0x3e1c10da	0.15240803
121	0xbe047370	-0.12934661
122	0xbd9e5d8c	-0.077326864
123	0xbc0f3ec5	-0.008742993
124	0xbe1123ca	-0.14173809
125	0xbe3de8e5	-0.18545873
126	0x3cfa52b2	0.03055701
127	0xbda2ddb2	-0.07952441

sequential_1/dense_1/MatMul f4 [128, 150]
0	0xbd815e3b	-0.06316801
1	0x3edf0b9e	0.4356355
2	0xbe6cc0b8	-0.23120391
3	0x3d6a8f7c	0.057265744
4	0xbbfaa104	-0.007648589
5	0xbe097f93	-0.13427572
6	0x3d8b06e8	0.06788427
7	0x3e099f26	0.13439617
8	0x3f0b3e56	0.5439199
9	0x3eeeff96	0.46679372
10	0x3de71ee6	0.1128519
11	0x3d1fdc9e	0.039028756
12	0x3d72a853	0.059242558
13	0x3e6d0e71	0.2315004
14	0x3e78b41b	0.24287455
15	0x3dcdf831	0.100571044
16	0xbe6bb3e0	-0.23017836
17	0x3e960210	0.2929845
18	0x3d81b48a	0.06333263
19	0xbd1b51b7	-0.037919726
20	0xbdbc72f1	-0.09201611
21	0xbe070290	-0.13184571
22	0x3d9eaf31	0.07748259
23	0xbe211184	-0.15729338
24	0xbc9e6c5a	-0.019338775
25	0x3e196d26	0.14983043
26	0x3de787b2	0.11305179
27	0x3d875a89	0.06609065
28	0xbecae136	-0.39624947
29	0xbd081ee8	-0.0332326
30	0x3d759990	0.0599609
31	0x3c0ae681	0.008477808
32	0x3e79a730	0.24380183
33	0x3db7fca7	0.089837365
34	0x3dc8ea6d	0.09810338
35	0xbe8d5d04	-0.27610028
36	0xbc2fd46a	-0.010731796
37	0x3dc379a2	0.09544684
38	0x3dea80ae	0.11450325
39	0xbc648b70	-0.01394926
40	0xbd848069	-0.06469805
41	0xbce2073f	-0.027591346
42	0x3c77842e	0.015107198
43	0x3c81f04c	0.015861653
44	0xbe9c7c48	-0.3056357
45	0x3e5e9007	0.2173463
46	0x3da19ae5	0.07890872
47	0x3e10af10	0.14129281
48	0xbd82dfec	-0.06390366
49	0x3d2d391c	0.042290792
50	0x3ea5b9b8	0.32368255
51	0x3dddd950	0.10832465
52	0xbda5403d	-0.08068893
53	0xbd6327f8	-0.05545804
54	0xbcef9894	-0.02924756
55	0xbd7483e6	-0.0596961
56	0xbc633808	-0.013868339
57	0xbd9ba7ee	-0.076003894
58	0x3dbb15fe	0.09135054
59	0x3db09239	0.0862164
60	0xbda38cef	-0.07985865
61	0xbc809c82	-0.015699629
62	0x3daa8b05	0.08327297
63	0x3ddffce0	0.10936904
64	0xbd2c38b3	-0.04204626
65	0xbccf14a0	-0.02527839
66	0x3e3bfdcf	0.18358539
67	0x3cb86a70	0.02251169
68	0x3dcb7588	0.09934527
69	0xbe00f644	-0.12593943
70	0x3c675490	0.014119282
71	0xbd80129a	-0.06253548
72	0xbe28773c	-0.16451734
73	0x3cca1163	0.024666494
74	0xbd4d9f50	-0.05020076
75	0x3ce4a82f	0.027912227
76	0x3dfe9447	0.124306254
77	0x3e11edd2	0.14250877
78	0x3e449a0e	0.19199392
79	0xbd19b4d5	-0.03752597
80	0xbdbe80d2	-0.09301914
81	0xbe1a1b76	-0.15049538
82	0x3e3f9091	0.18707491
83	0xbe736c87	-0.23771869
84	0x3dc07ef9	0.09399218
85	0x3e28c303	0.16480641
86	0xbf221865	-0.63318473
87	0xbdfba868	-0.1228798
88	0xbd5c24fe	-0.053746216
89	0x3e2c1d06	0.16807947
90	0xbcfb9b3e	-0.030713674
91	0xbd982c00	-0.07430267
92	0x3e00f973	0.12595157
93	0x3dc6fadb	0.09715816
94	0x3d8f3d67	0.069941334
95	0x3def3bac	0.116813034
96	0x3dc7e4a9	0.0976041
97	0x3da84748	0.08216721
98	0x3d561867	0.052269366
99	0x3daa2041	0.08306933
100	0x3e2bc41d	0.1677403
101	0xbde48261	-0.1115768
102	0x3d9694a5	0.073525704
103	0x3dec0854	0.11525026
104	0xbddfd1ca	-0.10928686
105	0xbeb96f38	-0.36217666
106	0xbd76d5c2	-0.06026245
107	0x3d135070	0.035965383
108	0xbe03e0dd	-0.12878747
109	0x3e8f9e3b	0.28050408
110	0x3e12622f	0.14295267
111	0xbde64889	-0.11244304
112	0xbdb9b643	-0.09067967
113	0x3d916679	0.07099623
114	0x3d64c2f9	0.055850003
115	0x3ea59fd8	0.32348514
116	0x3dcd7a5a	0.10033102
117	0x3e5d1a60	0.21592093
118	0xbda46cb0	-0.08028543
119	0x3d50608e	0.05087333
120	0xbc84e2fe	-0.01622152
121	0xb8df1e7f	-0.00010639149
122	0x3d5de8d8	0.054177135
123	0x3c4e2f95	0.012584587
124	0xbbb98fcd	-0.0056628943
125	0x3d551b26	0.052027844
126	0xbe810760	-0.2520094
127	0xbdea15bb	-0.11429926
128	0x3d9da90e	0.0769826
129	0x3d812d3d	0.06307457
130	0x3e410895	0.1885093
131	0x3e0a4484	0.13502699
132	0xbc8ed438	-0.017435178
133	0xbe1369e6	-0.14395866
134	0xbe35046f	-0.17677473
135	0xbe570ab5	-0.21000178
136	0x3d579458	0.052631706
137	0xbe8711dd	-0.26380816
138	0xbdd91398	-0.1059944
139	0x3e0ef582	0.13960841
140	0x3cc45328	0.023965433
141	0xbda2547b	-0.079262696
142	0xbcff62b0	-0.031174988
143	0xbc64fb20	-0.0139758885
144	0xbd5f0280	-0.054445744
145	0xbcebe064	-0.028793521
146	0x3cf81c19	0.030286836
147	0x3e41feb6	0.18944821
148	0x3ccebb6c	0.025235854
149	0xbdaca855	-0.08430544
150	0xbd9f8c47	-0.07790428
151	0xbe1940d3	-0.14966135
152	0xbd3b9533	-0.045796584
153	0xbd9ee069	-0.077576466
154	0x3c5f1504	0.01361585
155	0x3d0a9d0d	0.03384118
156	0x3ceb1f72	0.028701518
157	0x3dbcb083	0.092133544
158	0x3e182fde	0.1486201
159	0xbe35313d	-0.17694564
160	0x3d3039b0	0.043023765
161	0x3df8d7fb	0.1215057
162	0xbcfe9360	-0.031076133
163	0x3bc58e59	0.006028932
164	0xbde69b44	-0.11260083
165	0xbba97b77	-0.005172189
166	0xbdb7f112	-0.089815274
167	0xbe2f40f1	-0.17114617
168	0x3daa1969	0.08305628
169	0xbe4f9e16	-0.20275149
170	0x3d72fc37	0.059322562
171	0xbe08b22e	-0.1334922
172	0x3e0dcfb1	0.13848759
173	0xbcf1939a	-0.029489327
174	0x3c8887a3	0.01666624
175	0x3d6063ba	0.054782607
176	0x3dbf32f1	0.09335888
177	0x3df0c4b7	0.117562704
178	0xbdaf0b20	-0.08547044
179	0x3da6b46c	0.081398815
180	0xbea16af9	-0.31526926
181	0x3eade9fc	0.33967578
182	0x3d08a8e8	0.033364207
183	0xbdd146d2	-0.10218586
184	0xbdb37196	-0.08761899
185	0xbedb12c5	-0.42787758
186	0xbe07e90c	-0.13272494
187	0xbdda1636	-0.10648768
188	0xbd98d34e	-0.07462178
189	0x3d53e5a6	0.05173268
190	0xbda370f2	-0.07980527
191	0x3dcb2760	0.099196196
192	0x3d0e7f9a	0.03478966
193	0x3e3933f3	0.18086223
194	0xbe0341b0	-0.12818027
195	0xbea5d229	-0.32386902
196	0x3e393ebc	0.18090338
197	0xbdb850e8	-0.08999807
198	0x3d857d87	0.06518083
199	0x3df56780	0.11982632
200	0xbe90409b	-0.2817429
201	0x3cfee3ee	0.031114545
202	0xbe3d1bc1	-0.18467619
203	0x3cbe62e2	0.02324051
204	0xbdadd1d6	-0.08487289
205	0x3cf047c1	0.02933109
206	0x3e5f7127	0.21820508
207	0xbdbcdee2	-0.09222199
208	0x3dc15cda	0.09441538
209	0xbdcaa0e6	-0.0989397
210	0x3d173443	0.036915075
211	0xbe2ea330	-0.17054439
212	0xbe119bc3	-0.14219575
213	0x3af8b509	0.0018974851
214	0xbd493ee1	-0.04913223
215	0x3daddf44	0.0848985
216	0xbd684564	-0.0567068
217	0x3d126f79	0.03575084
218	0xbc43326f	-0.01191388
219	0x3e674dd3	0.22588281
220	0x3c80dcb7	0.015730245
221	0xbdd6841c	-0.104744166
222	0xbe6699d3	-0.22519617
223	0x3e12c585	0.1433316
224	0xbe296dbd	-0.16545768
225	0x3d92cf8c	0.07168493
226	0xbd1b9455	-0.037983257
227	0xbcbdff6f	-0.02319309
228	0xbd4b7512	-0.049672194
229	0x3da98575	0.08277408
230	0xbe7a9c1c	-0.24473614
231	0x3de05614	0.10953918
232	0xbd63178d	-0.05544238
233	0x3cd974d2	0.026544962
234	0x388397e3	6.274858e-05
235	0xbe14fe4d	-0.14550133
236	0x3e4fda5f	0.20298146
237	0x3ead2cf9	0.33823374
238	0xbc10d5c6	-0.00884003
239	0xbd101232	-0.035173602
240	0xbc405fe8	-0.011741616
241	0xbd11e614	-0.03561981
242	0xbe9e621c	-0.30934227
243	0xbce75133	-0.028236961
244	0xbe316245	-0.17322643
245	0x3e9df4ca	0.30850822
246	0x3e3cf346	0.18452176
247	0x3e79c449	0.24391283
248	0x3de02c8a	0.10945995
249	0x3e398094	0.18115455
250	0xbdc318a8	-0.09526187
251	0x3d64f824	0.055900708
252	0xbc5d4e4c	-0.013507437
253	0xbde5728f	-0.11203491
254	0xbe03aaa9	-0.1285807
255	0xbdfd398b	-0.12364491
