app/src/main/assets/intent_detection_model.tflite (tflite, 124048 bytes, 6 tensors)

arith.constant f4 [23, 64]
0	0xbd7a84cf	-0.061161812
1	0x3f142a47	0.5787701
2	0xbd354dc8	-0.04426363
3	0x3c366dce	0.011134578
4	0x3f3a11d8	0.7268348
5	0xbd6072b1	-0.05479688
6	0xbdd2b4c0	-0.102883816
7	0x3e461cb4	0.19346887
8	0xbeca98d8	-0.39569736
9	0x3e17d6fa	0.14828101
10	0xbeaf1b03	-0.34200296
11	0xbeddbff9	-0.43310526
12	0xbdbb200b	-0.09136971
13	0xbecc9716	-0.3995902
14	0xbe972fe7	-0.29528734
15	0x3f2ea6a8	0.6822305
16	0xbec9d83b	-0.39422783
17	0xbd615ccd	-0.055020142
18	0x3f42df59	0.7612205
19	0x3f1957c3	0.5989954
20	0xbeac82cc	-0.3369354
21	0xbe42c167	-0.1901909
22	0xbd187e05	-0.037229557
23	0xbe8c701e	-0.2742929
24	0xbdc7d746	-0.09757857
25	0xbe1223af	-0.14271425
26	0x3e46ae76	0.19402489
27	0xbe72264c	-0.23647422
28	0xbbc7c55a	-0.006096524
29	0xbe98e827	-0.29864618
30	0x3efd4edd	0.4947423
31	0x3ea38986	0.3194086
32	0xbe3b6850	-0.18301511
33	0x3ee6ec9f	0.45102403
34	0x3f08bf71	0.53417116
35	0xbed4483c	-0.4146136
36	0x3d78d4a9	0.060749684
37	0x3f4d782b	0.80261487
38	0xbe280b9d	-0.1641068
39	0xbe4befaa	-0.19915643
40	0xbe2e9c4f	-0.17051814
41	0xbea79690	-0.32732058
42	0xbeb94d37	-0.36191723
43	0xbe99fbb1	-0.30074838
44	0x3ef5afe5	0.4798576
45	0xbe90c41c	-0.2827462
46	0xbe109911	-0.1412089
47	0x3f35de11	0.7104197
48	0x3f331d5f	0.6996669
49	0xbd9a5702	-0.07536127
50	0xbecdac7a	-0.40170652
51	0xbe830a5d	-0.25593844
52	0xbe6b5bcc	-0.22984236
53	0x3f2e9f67	0.6821198
54	0xbddc306d	-0.10751424
55	0xbe16c2cc	-0.14722747
56	0xbe53309a	-0.20624009
57	0x3c99f1aa	0.018791992
58	0x3ef32495	0.47488847
59	0x3c9055b6	0.017618995
60	0xbeeb5179	-0.45960596
61	0xbe8af7b4	-0.27142107
62	0x3efbbca0	0.49167347
63	0xbe27be23	-0.16381125
64	0x3f1a2501	0.60212713
65	0x3f0cad9e	0.5495242
66	0x3eb61202	0.35560614
67	0x3f29d5da	0.66341937
68	0x3f1b0e0d	0.60568315
69	0xbe8bb073	-0.27283058
70	0x3f1a8d6b	0.60372037
71	0xbeeec25c	-0.4663266
72	0xbf347d46	-0.7050365
73	0xbec22094	-0.3791548
74	0xbf528dca	-0.822476
75	0xbf1bda80	-0.6088028
76	0x3ee53485	0.44766632
77	0x3ecc78ae	0.3993582
78	0xbefd9761	-0.49529555
79	0x3f32ecd9	0.6989265
80	0x3d931125	0.071810044
81	0x3f2c68db	0.67347497
82	0xbe3ca10e	-0.18420812
83	0x3ece4cf9	0.402931
84	0x3f06ba79	0.52628285
85	0x3f082f80	0.5319748
86	0xbdcc1b50	-0.09966147
87	0xbdad05c3	-0.084483646
88	0xbeb978fc	-0.36225116
89	0x3f3bc28a	0.7334372
90	0xbe8091b5	-0.25111166
91	0x3e0949c3	0.13407044
92	0xbe1c464a	-0.15261188
93	0xbe890a4d	-0.2676567
94	0x3f1be34e	0.60893714
95	0xbf1c3d69	-0.61031204
96	0xbebd8d7d	-0.3702201
97	0xbf06b367	-0.52617496
98	0x3f12b35c	0.5730493
99	0xbed8476b	-0.42241988
100	0xbe5e7923	-0.21725897
101	0xbeedfe2f	-0.4648299
102	0x3eaa435c	0.33254516
103	0x3ed19a4c	0.40938032
104	0xbf040fc2	-0.51586545
105	0x3f2b0f9c	0.66820693
106	0x3f297ad5	0.6620305
107	0xbebd58ec	-0.36981905
108	0xbe735377	-0.23762308
109	0x3eef46a1	0.46733573
110	0xbea01ac6	-0.31270427
111	0x3f2f0339	0.6836429
112	0xbeb09954	-0.3449198
113	0xbe6682fe	-0.22510907
114	0xbe52a9de	-0.20572612
115	0xbe608ff1	-0.2192991
116	0xbf2841f3	-0.6572563
117	0x3f3b339c	0.73125625
118	0x3f1dfb7b	0.61711854
119	0xbf193167	-0.59841007
120	0x3ee940ec	0.45557344
121	0x3efb96af	0.491384
122	0x3c682cf9	0.014170879
123	0xbecf8b8c	-0.40536153
124	0xbf467be0	-0.7753277
125	0xbe93a037	-0.28833172
126	0xbf106a1c	-0.5641191
127	0x3f09d64b	0.5384261
128	0xbeb83a55	-0.35982004
129	0x3f3010f8	0.6877589
130	0xbedb2bbc	-0.42806804
131	0xbef0a1c9	-0.46998432
132	0x3efa9fc2	0.4895001
133	0xbece98b7	-0.40350887
134	0x3f7a9c65	0.9789489
135	0xbf0bb59c	-0.5457399
136	0x3f058e86	0.521706
137	0xbec1b0e7	-0.37830278
138	0x3e867fd0	0.26269388
139	0xbf42ff27	-0.7617058
140	0x3f0ed323	0.5579092
141	0xbf1cd06d	-0.6125553
142	0xbf24a0eb	-0.6430804
143	0x3ef3be0f	0.4760594
144	0x3e9ac725	0.3023006
145	0x3ede3c64	0.4340545
146	0x3d656543	0.056004774
147	0xbd4a2035	-0.04934712
148	0xbe84a9ce	-0.259108
149	0xbe838bed	-0.25692692
150	0xbc0565ec	-0.008141976
151	0xbeb32e20	-0.34996128
152	0xbdd686ec	-0.10474953
153	0x3f668989	0.9005361
154	0xbf132ea8	-0.57493067
155	0x3f51a261	0.81888396
156	0x3f63c74e	0.8897599
157	0xbf17eee5	-0.593489
158	0xbf128b80	-0.5724411
159	0xbe8a7b44	-0.2704717
160	0xbed07dfd	-0.4072112
161	0xbe65c08b	-0.2243673
162	0x3eddeeca	0.43346244
163	0xbf062531	-0.524005
164	0x3e83d850	0.2575097
165	0x3f34918f	0.70534605
166	0xbea63d12	-0.32468468
167	0x3f063324	0.52421784
168	0x3ef346d0	0.47514963
169	0x3eeab4f0	0.4584117
170	0xbf15b6e6	-0.58482206
171	0xbf421693	-0.75815696
172	0xbed276fb	-0.411064
173	0x3eea5b28	0.45772672
174	0xbe9c9d0d	-0.3058857
175	0xbecc7a43	-0.39937028
176	0x3ee63d68	0.44968724
177	0xbeb9a4ee	-0.36258644
178	0xbe7f4b25	-0.24931009
179	0x3f151173	0.5822975
180	0x3e97513e	0.2955417
181	0xbd9fddec	-0.07806
182	0x3f17b42d	0.592593
183	0xbf051172	-0.51979744
184	0x3e9fd6c3	0.31218538
185	0x3edeb9a3	0.43501005
186	0xbf24f393	-0.64434165
187	0xbe65ce6f	-0.2244203
188	0xbf684ee5	-0.90745384
189	0x3f6754fb	0.90364045
190	0x3ef6b790	0.48186922
191	0x3f001b1a	0.50041354
192	0xbe93d537	-0.28873608
193	0x3f09488d	0.5362633
194	0x3d8b08de	0.06788801
195	0xbec556fd	-0.3854293
196	0xbeb7a14a	-0.3586524
197	0xbc6b6bef	-0.014368995
198	0xbdc7bb07	-0.097524695
199	0xbf131819	-0.57458645
200	0x3eeabb2b	0.45845923
201	0xbf35ec3c	-0.7106359
202	0xbf03160c	-0.51205516
203	0xbf17a72a	-0.5923945
204	0x3e868ccf	0.26279303
205	0x3f206746	0.6265758
206	0xbf1a1abb	-0.6019704
207	0x3f3ea561	0.744711
208	0xbf498692	-0.78720963
209	0x3f119732	0.5687133
210	0xbe49a1df	-0.19690655
211	0x3f1334be	0.57502353
212	0xbf023e8d	-0.50876695
213	0xbdda4fbb	-0.10659739
214	0xbec76903	-0.38947305
215	0xbdb4561b	-0.08805486
216	0x3ea63ea8	0.32469678
217	0x3c176a4f	0.009241655
218	0xbf0446d7	-0.51670593
219	0xbe903d5b	-0.2817181
220	0xbee889f1	-0.4541774
221	0xbee35e1a	-0.4440773
222	0xbf349eb0	-0.7055464
223	0xbf002f4b	-0.50072163
224	0xbe9f8397	-0.31155083
225	0xbf034783	-0.51280993
226	0xbe10d2c7	-0.14142905
227	0x3f311b36	0.69182146
228	0x3ebb5673	0.36589393
229	0xbd724cdc	-0.05915533
230	0xbf02af75	-0.51048976
231	0x3f25eedb	0.6481759
232	0x3ecc4324	0.39894974
233	0x3f18618b	0.5952384
234	0xbf1f42a3	-0.62211055
235	0x3f38519d	0.7199953
236	0x3ed4ee52	0.41588074
237	0x3f45fed5	0.7734197
238	0xbeec5137	-0.46155712
239	0xbf04f8f9	-0.519424
240	0xbe8126b3	-0.25224838
241	0xbe90d036	-0.28283852
242	0xbf090aab	-0.53531903
243	0xbddd63f1	-0.10810078
244	0xbf178e63	-0.5920164
245	0xbeb6dd82	-0.35715872
246	0x3eeb5c72	0.45968968
247	0xbebd7f32	-0.37011105
248	0x3f23f8f6	0.6405176
249	0x3ed55805	0.41668716
250	0x3f0d8324	0.5527823
251	0xbef0be72	-0.47020298
252	0xbf5973c3	-0.84942263
253	0xbe68e4ca	-0.22743526
254	0x3f244c05	0.64178497
255	0x3f0ccdb5	0.55001384

arith.constant1 f4 [64, 128]
0	0xbe0f3077	-0.13983332
1	0x3d064159	0.032777164
2	0x3ea70af8	0.32625556
3	0x3d51c065	0.051208872
4	0xbed2b97a	-0.41157132
5	0xbc41f1aa	-0.011837402
6	0x3e2bea71	0.16788651
7	0x3df5c1bf	0.11999845
8	0x3e08a7e8	0.13345301
9	0x3e9b8b3d	0.30379668
10	0xbe6b22d6	-0.22962508
11	0xbeefe81f	-0.46856782
12	0xbea1b3a5	-0.3158237
13	0x3e2b715a	0.16742459
14	0xbc8c8a8f	-0.017155914
15	0x3ed09060	0.4073515
16	0xbdeb764f	-0.11497175
17	0xbd3773af	-0.04478806
18	0xbbee6632	-0.007275366
19	0xbe1fc744	-0.15603358
20	0x3cba93ba	0.02277552
21	0x3e0bdf1b	0.13659327
22	0xbeb35e53	-0.350329
23	0x3ea3d91e	0.32001585
24	0x3df76048	0.12078911
25	0xbe22332e	-0.15839836
26	0x3e90014f	0.28125998
27	0xbd95e04d	-0.073181726
28	0xbe24d540	-0.16096973
29	0x3d4acb37	0.049510207
30	0x3de96342	0.11395885
31	0xbccad738	-0.024760827
32	0xbd29ca80	-0.041452885
33	0x3e235de7	0.1595379
34	0xbe327d3d	-0.17430587
35	0x3ed4249d	0.41434184
36	0xbe2b82fd	-0.16749187
37	0x3dc77161	0.09738422
38	0xbd7702a4	-0.060305253
39	0xbddd7f57	-0.10815304
40	0xbe8405a9	-0.25785568
41	0x3e3fc697	0.187281
42	0xbebb8c38	-0.36630416
43	0xbe9250f1	-0.28577378
44	0xbca270b5	-0.019829134
45	0x3d233b24	0.039851323
46	0x3e17439b	0.14771883
47	0xbd6e2622	-0.058141835
48	0xbe2a4671	-0.16628434
49	0xbdc1b9bb	-0.094592534
50	0x3e85ef81	0.2615929
51	0x3e425997	0.18979488
52	0x3d1ff726	0.03905406
53	0x3eebc6c8	0.46050096
54	0x3c49f04b	0.012325357
55	0x3a915d3d	0.0011090409
56	0x3e002fea	0.12518278
57	0x3dde66f9	0.10859484
58	0xbcb583e6	-0.02215762
59	0xbe945c52	-0.28976685
60	0x3c768f85	0.015048866
61	0x3d8b3156	0.067965195
62	0xbe2aced3	-0.1668046
63	0xbda91d62	-0.082575575
64	0x3ec3fe8d	0.38280144
65	0x3e96d6cb	0.2946075
66	0x3e15d245	0.14630993
67	0xbe2f0a45	-0.17093761
68	0xbea49f95	-0.32153
69	0x3ed31331	0.4122558
70	0xbdff186e	-0.124558315
71	0xbef42488	-0.4768412
72	0x3d6a7443	0.057239782
73	0xbd87091d	-0.06593535
74	0xbd9e5a4b	-0.07732066
75	0x3dc437d7	0.09580963
76	0x39b812ee	0.0003510932
77	0xbe07c820	-0.13259935
78	0x3e59d41e	0.21272323
79	0xbd7874d8	-0.060658306
80	0x3d9a6d97	0.07540434
81	0x3ddde0d5	0.10833899
82	0xbd888674	-0.0666627
83	0xbd9ffe38	-0.0781216
84	0x3ece91cd	0.40345612
85	0x3ebdb761	0.3705397
86	0xbe0da490	-0.13832307
87	0xbe53fdbb	-0.20702259
88	0xbdd78e03	-0.105251335
89	0xbd8c498f	-0.06849968
90	0xbdd7aafc	-0.105306596
91	0x3d9d8724	0.07691792
92	0xbd951af8	-0.072805345
93	0xbea7c121	-0.32764533
94	0xbdac833c	-0.084234685
95	0xbe0d57e6	-0.13803062
96	0x3f04bd32	0.5185119
97	0xbe4b43b8	-0.19850051
98	0xbd251b22	-0.04030908
99	0x3ea47c26	0.32125968
100	0x3d9332ee	0.071874484
101	0xbe0cd5a7	-0.13753377
102	0xbe85118d	-0.25989953
103	0x3e2fa525	0.17152841
104	0x3e38ec12	0.18058804
105	0xbd9a1daa	-0.07525189
106	0x3ddd3058	0.108002365
107	0x3d8c8670	0.068615794
108	0x3e334f5c	0.17510742
109	0xbde170cf	-0.11007845
110	0xbcffd633	-0.031230068
111	0x3cf111ef	0.029427497
112	0xbdbb9525	-0.091593064
113	0xbe99086d	-0.2988924
114	0xbe93f74e	-0.28899616
115	0x3f015fe6	0.50536954
116	0xbcb78908	-0.022404209
117	0xbeda6984	-0.42658627
118	0xbebe1450	-0.37124872
119	0x3ec6ec10	0.38851976
120	0xbe6ace94	-0.22930366
121	0xbdc3ff94	-0.09570232
122	0xbe8ae4b0	-0.271276
123	0x3d28af86	0.041183017
124	0xbe985125	-0.29749408
125	0xbd994f5b	-0.07485839
126	0x3e271d1e	0.16319701
127	0xbd524388	-0.051333934
128	0xbe1c857b	-0.15285294
129	0x3ea5e615	0.324021
130	0xbeaf9377	-0.34292194
131	0x3d4b27f6	0.049598657
132	0x3dd7aee3	0.10531404
133	0xbe13dd99	-0.14440002
134	0xbea2d553	-0.31803378
135	0x3d9ec235	0.07751886
136	0x3d814a6e	0.063130245
137	0xbe5a0ce9	-0.21293987
138	0xbdb3b20c	-0.08774194
139	0x3dc43f4a	0.09582384
140	0x3d34a87b	0.044105988
141	0x3e0a247f	0.13490485
142	0xbe6dcef7	-0.23223482
143	0x3bd8dc8d	0.0066180886
144	0x3e067745	0.13131435
145	0x3f07c645	0.5303691
146	0x3cc7f883	0.024410492
147	0x3e82ca4d	0.25544968
148	0xbd642f1f	-0.055709
149	0x3f0d1b36	0.55119646
150	0x3dbb8d93	0.091578625
151	0xbeb09c4b	-0.34494242
152	0xbddee35d	-0.1088321
153	0x3c58a4e0	0.013222903
154	0xbd86fd48	-0.06591278
155	0xbd093ae3	-0.033503424
156	0x3e0cbf86	0.13744935
157	0xbdd6d1f7	-0.10489266
158	0x3e88a9f6	0.2669217
159	0xbe2d773f	-0.1694002
160	0x3e74ce6e	0.23906872
161	0xbe1dfb68	-0.15427935
162	0x3da2b583	0.07944777
163	0x3e4211ee	0.18952152
164	0x3e51e0d1	0.20495917
165	0xbee7af4c	-0.45250928
166	0xbda87d55	-0.0822703
167	0xbe343333	-0.17597656
168	0xbc3694f6	-0.0111439135
169	0x3e1ad0d6	0.15118727
170	0xbebedaad	-0.3727621
171	0x3b4e5a44	0.0031486908
172	0x3f1499a5	0.5804694
173	0xbe5d6f38	-0.21624458
174	0xbe7b034d	-0.24512978
175	0xbe5d6964	-0.21622235
176	0xbde8e874	-0.11372462
177	0xbe2f2002	-0.17102054
178	0x3eb12b5f	0.34603402
179	0xbe8bbb8b	-0.2729152
180	0x3deda428	0.11603576
181	0xbe61350f	-0.21992896
182	0xbd889d2f	-0.066706054
183	0xbdf33bbf	-0.1187663
184	0x3e818322	0.2529536
185	0x3e74968c	0.23885554
186	0xbcf6e253	-0.030137217
187	0xbe3d51ec	-0.18488282
188	0x3ae9397c	0.0017793621
189	0x3e501804	0.20321661
190	0xbdf5bbcc	-0.1199871
191	0x3e06fe1d	0.13182874
192	0x3b19993b	0.002343728
193	0x3e502145	0.20325191
194	0xbe4e037a	-0.20118514
195	0xbe1497b1	-0.1451099
196	0xbdd082fa	-0.10181232
197	0xbdb54448	-0.08850914
198	0x3e153429	0.14570679
199	0xbda70f0e	-0.08157168
200	0x3e7cdc31	0.24693371
201	0x3eb7ed54	0.35923254
202	0x3eda77a1	0.42669395
203	0xbcea9662	-0.028636161
204	0x3ef03953	0.46918735
205	0x3ebf0021	0.37304786
206	0xbecf0ab2	-0.40437847
207	0x3e3a5602	0.18196872
208	0x3d47f847	0.04882076
209	0x3ea96dbc	0.33091533
210	0x3bf326e7	0.007420409
211	0x3ee2cb64	0.442958
212	0x3e8dce86	0.27696627
213	0x3e69bf2a	0.2282683
214	0x3debd922	0.11516024
215	0x3e9c3115	0.30506197
216	0xbb4097c1	-0.0029387327
217	0x3d06087c	0.032722935
218	0xbd37b2fd	-0.04484843
219	0xbed30b96	-0.41219777
220	0x3e30f36c	0.17280358
221	0xbe0eff7e	-0.1396465
222	0x3c9d5712	0.019206557
223	0x3e9b4854	0.3032862
224	0xbe00b07f	-0.12567328
225	0xbebca2e3	-0.36843023
226	0x3d3e0d2d	0.046399284
227	0xbe755b09	-0.23960508
228	0x3e2ea7ba	0.1705617
229	0x3db7b331	0.08969725
230	0x3d310915	0.043221552
231	0x3e2232b6	0.15839657
232	0x3dfc96da	0.1233346
233	0x3e0503d1	0.12989737
234	0x3e1fea53	0.15616731
235	0x3da89992	0.08232416
236	0xbe209cc5	-0.15684803
237	0xbdf7d478	-0.12101072
238	0xbddf6d10	-0.10909474
239	0x3d53da37	0.051721778
240	0xbe83c995	-0.25739732
241	0x3e5221d4	0.20520717
242	0xbd8c2489	-0.06842906
243	0xbe03abf3	-0.12858562
244	0x3ee7e77c	0.45293796
245	0xbddb9e10	-0.107235074
246	0xbcff7b2a	-0.031186659
247	0xbd8d09b9	-0.0688662
248	0xbebfd83a	-0.37469655
249	0xbe0cc651	-0.13747527
250	0xbc9ae3a2	-0.018907372
251	0xbdba462a	-0.09095414
252	0xbded661d	-0.11591742
253	0x3d56d2be	0.052447073
254	0x3e717f3d	0.23583694
255	0xbcc9d355	-0.024636904

arith.constant2 f4 [23]
0	0xbe3b6712	-0.18301037
1	0xbe92e6bc	-0.2869166
2	0x3e22c897	0.15896831
3	0xbe19a0ac	-0.15002698
4	0xbf80c923	-1.0061382
5	0x3e5e574d	0.2171299
6	0xbe6c4c73	-0.23076038
7	0xbcfbcdcd	-0.030737782
8	0x3b4218e5	0.002961689
9	0x3dae1bd7	0.08501404
10	0xbebdb1b6	-0.37049645
11	0x3ebd49b6	0.369703
12	0x3e39a39e	0.18128821
13	0xbe81a882	-0.25323874
14	0xbed69a01	-0.4191437
15	0x3ecc3a83	0.3988839
16	0xbd5edf2e	-0.05441206
17	0x3f7bf349	0.984181
18	0xbd8d575d	-0.06901429
19	0xbed7fecd	-0.42186585
20	0x3ea6b496	0.3255965
21	0x3e14ef10	0.1454432
22	0x3f1b48e6	0.6065811

sequential_1/dense_1_2/BiasAdd/ReadVariableOp f4 [64]
0	0xbe5857c5	-0.21127231
1	0xbe0ceec9	-0.13762964
2	0x3e87d083	0.2652627
3	0xbe80ea79	-0.25178888
4	0x3e1c6673	0.15273456
5	0x3cb7deae	0.02244505
6	0xbe1025cd	-0.1407692
7	0xbbaf8335	-0.0053562173
8	0x3ea06ccd	0.31333008
9	0x3d045328	0.032305866
10	0xbaeb3e9f	-0.001794774
11	0x3c9a8c32	0.018865678
12	0x3e0ffab1	0.14060475
13	0xbbbe8abb	-0.005814878
14	0x3e8396ae	0.25700897
15	0xbcc6e7af	-0.024280397
16	0x3ddfbd01	0.109247215
17	0xbe46c111	-0.19409586
18	0xbd8fe190	-0.070254445
19	0xbd82c1f8	-0.06384653
20	0xbe6cb977	-0.23117624
21	0x3c70cbfc	0.014697071
22	0x3e58e028	0.21179259
23	0xbe9cbed2	-0.30614334
24	0xbd58db01	-0.052943233
25	0x3e4aa030	0.19787669
26	0x3eb45c62	0.35226732
27	0x3b9ca0e6	0.004779923
28	0x3ec89015	0.39172426
29	0xbc4cb90b	-0.01249529
30	0x3e361dc7	0.17784797
31	0x3df6b48b	0.120461546
32	0x3e0fefc2	0.14056304
33	0x3de3b967	0.11119347
34	0x3ef75c0d	0.48312417
35	0x3eaf75c5	0.3426954
36	0xbc21253b	-0.009835537
37	0x3e74c414	0.23902923
38	0xbcf2fc46	-0.029661309
39	0x3e69b5c6	0.22823247
40	0x3ed5a28f	0.41725585
41	0x3e532f2b	0.20623462
42	0xbdf78e19	-0.1208765
43	0x3e5d39b3	0.21604042
44	0x3eba5710	0.36394548
45	0x3e1d8ae1	0.1538501
46	0x3b51c417	0.0032007748
47	0xbe439516	-0.1909984
48	0x3e232f06	0.15935907
49	0xbd7570eb	-0.05992214
50	0xbdf7f981	-0.12108136
51	0x3dcb3a2c	0.09923205
52	0x3dd1df38	0.10247654
53	0xbe665835	-0.22494586
54	0xbdde4b0d	-0.108541586
55	0xbdbaafdb	-0.09115573
56	0x3de3ae14	0.11117187
57	0x3ea1883d	0.31549254
58	0xbe90a740	-0.28252602
59	0x3d23b981	0.039971832
60	0x3e5b4e49	0.21416582
61	0x3e0d00c2	0.1376982
62	0x3e150730	0.14553523
63	0x3b1ebac0	0.0024220198

sequential_1/dense_1/BiasAdd/ReadVariableOp f4 [128]
0	0x3e4f84f6	0.20265564
1	0x3d1321dc	0.035920963
2	0x3cb135d5	0.021632114
3	0xbe054eea	-0.13018385
4	0xbe6c618b	-0.23084085
5	0xbe43edb9	-0.19133653
6	0x3cdc98f1	0.026928397
7	0xbdd65684	-0.1046572
8	0xbe9a7430	-0.3016677
9	0xbcc164a5	-0.023607561
10	0x3d78d441	0.060749296
11	0xbe041930	-0.12900233
12	0xbe75e17c	-0.24011797
13	0xbdfd3ad9	-0.1236474
14	0x3dfba857	0.12287968
15	0x3db7bc4a	0.0897146
16	0xbe4ac705	-0.19802482
17	0xbe120172	-0.14258364
18	0x3da551b8	0.08072227
19	0xbc6bd28d	-0.014393461
20	0x3cef361f	0.029200612
21	0x3cc3eac0	0.023915648
22	0xbdfa1ddb	-0.12212726
23	0xbed63b21	-0.41841987
24	0xbe10c1cc	-0.14136428
25	0xbe9bf1b2	-0.30457836
26	0x3d6c5eb0	0.05770749
27	0xbe997471	-0.2997165
28	0xbdcb51ec	-0.09927735
29	0xbdcba97d	-0.09944437
30	0xbcd17d6f	-0.025572507
31	0xbc7d2b97	-0.015452287
32	0xbd344250	-0.044008553
33	0xbdda9b0e	-0.106741056
34	0xbe692518	-0.22768056
35	0xbdba1f54	-0.090880066
36	0xbe224f43	-0.15850548
37	0xbd1085b7	-0.03528377
38	0xbdbaa5a1	-0.091136225
39	0x3d913a2b	0.07091173
40	0x3d2774cd	0.040882874
41	0xbd11df4d	-0.035613347
42	0x3e22de01	0.15905
43	0xbe1e25c4	-0.15444094
44	0xbca31de3	-0.019911712
45	0xbdb00142	-0.0859399
46	0xbe828060	-0.25488567
47	0xbc933199	-0.017967986
48	0xbd1ec4c8	-0.038761884
49	0x3d62cd6e	0.055371694
50	0xbdd4b0f0	-0.10385311
51	0x3e22cb2c	0.15897816
52	0xbdae7ea6	-0.0852025
53	0xbdc8e2ba	-0.0980887
54	0xbc55b139	-0.013042741
55	0x3e3dd3ba	0.18537799
56	0x3e5c47a9	0.21511711
57	0x3e7a09bf	0.2441778
58	0xbe7fb78c	-0.24972361
59	0xbe30730c	-0.17231387
60	0x3e0db266	0.13837585
61	0xbb3d3c3d	-0.0028875016
62	0xbdcfc3cd	-0.10144768
63	0xbdc2d281	-0.09512807
64	0x3ddca846	0.10774283
65	0x3e1f15d3	0.15535669
66	0xbc4a0970	-0.012331352
67	0xbddc5927	-0.10759192
68	0xbde9dd9b	-0.11419221
69	0xbc6aad3d	-0.01432353
70	0xbd25c39e	-0.04046976
71	0x3be2fa7a	0.006926832
72	0xbc61ab09	-0.013773688
73	0xbd380f20	-0.0449363
74	0xbe17d2ed	-0.14826556
75	0x3dc99884	0.09843543
76	0xbe830ee6	-0.25597304
77	0xbde4b3f7	-0.11167138
78	0xbd55e2fe	-0.05221843
79	0x3e1b8cd4	0.1519044
80	0xbe13b985	-0.14426239
81	0x3d9baf8a	0.07601841
82	0xbd1ff4eb	-0.03905193
83	0x3dde29c2	0.108478084
84	0xbcec9ce0	-0.028883398
85	0xbda047a8	-0.07826167
86	0xbd86f088	-0.065888464
87	0xbe1b8dd2	-0.15190819
88	0xbe4ebe99	-0.20189895
89	0x3d87454e	0.06605016
90	0xbd7dbf71	-0.06195015
91	0xbda0402c	-0.0782474
92	0xbd977980	-0.07396221
93	0xbea54deb	-0.3228601
94	0xbd41c417	-0.047306146
95	0xbd88b837	-0.06675761
96	0xbe003c62	-0.12523034
97	0xbe5f1ea8	-0.21789038
98	0xbe767fb1	-0.24072148
99	0xbc9b27a2	-0.018939797
100	0xbd93dfee	-0.072204456
101	0xbd5f63ec	-0.054538652
102	0xbe07d91b	-0.13266413
103	0xbd435941	-0.04769254
104	0xbe03d165	-0.12872846
105	0xbd83c1ff	-0.06433486
106	0xbd2fe837	-0.042946067
107	0xbdfa98aa	-0.122361496
108	0xbc7fdea8	-0.01561705
109	0xbdcf55b5	-0.10123769
110	0xbe386a12	-0.18009213
111	0x3d34c00c	0.044128463
112	0x3e208041	0.15673925
113	0xbdb222f2	-0.086980715
114	0x3dab922e	0.08377491
115	0xbda685da	-0.08130999
116	0xbc2340bd	-0.009964165
117	0xbdd5e474	-0.104439646
118	0x3b20edb8	0.0024555754
119	0xbc1dcc46	-0.009631222
120	0x3cdd1ef7	0.026992304
121	0xbbec61ff	-0.0072138305
122	0xbe2fb8ae	-0.17160293
123	0xbe958040	-0.2919941
124	0xbe13152f	-0.1436355
125	0xbd1456df	-0.03621566
126	0xbcbccc36	-0.023046594
127	0xbdb73276	-0.089451715

sequential_1/dense_1/MatMul f4 [128, 161]
0	0xbdedd00e	-0.11611949
1	0xbe2d6b7a	-0.1693553
2	0xbdbcf3f5	-0.092262186
3	0xbdb3be6d	-0.08776555
4	0x3e920f28	0.28527188
5	0xbe306fe5	-0.17230184
6	0x3cf40ef6	0.02979229
7	0xbdd888ef	-0.10572993
8	0xbe9c1d77	-0.3049123
9	0xbe7f0cc5	-0.24907215
10	0xbd2617e3	-0.040550124
11	0xbddb67c0	-0.10713148
12	0xbc808a1a	-0.015690852
13	0x3e22cca4	0.15898377
14	0xbdc5bbf6	-0.09654991
15	0xbd7151c9	-0.058915887
16	0xbdbe2510	-0.09284413
17	0xbdc9b125	-0.09848241
18	0xbd059716	-0.03261479
19	0xbdf36339	-0.118841596
20	0xbd45e60b	-0.04831509
21	0x3cdf0f4f	0.02722898
22	0xbdf8fcb6	-0.12157576
23	0x3cafe89c	0.021473221
24	0xbe8b701d	-0.27233973
25	0x3c95b855	0.018276373
26	0x3d940fea	0.07229598
27	0xbea01170	-0.31263304
28	0xbe8f6787	-0.28008673
29	0x3c5f91a9	0.013645568
30	0x3df0c358	0.11756009
31	0xbd9bfd6b	-0.07616695
32	0xbe3db32a	-0.18525377
33	0xbb092b44	-0.002093033
34	0xbcb9b673	-0.022670006
35	0x3de7b6dd	0.11314175
36	0xbe826bbe	-0.25472826
37	0x3e4e5a03	0.20151524
38	0xbd920449	-0.071297236
39	0x3eaafe59	0.33397177
40	0xbd8ca0ba	-0.06866594
41	0x3e4df89b	0.20114367
42	0xbe162cc5	-0.14665516
43	0x3dd98763	0.10621526
44	0xbd43045a	-0.04761157
45	0xbe60dac5	-0.21958454
46	0xbd0bc4fe	-0.034123413
47	0xbe22c5d9	-0.15895785
48	0x3d832178	0.06402868
49	0x3ecdb5bc	0.40177715
50	0xbde90dca	-0.11379583
51	0x3e82c708	0.25542474
52	0x3ca860aa	0.020553906
53	0xbe634f00	-0.22198105
54	0x3dcd9207	0.10037618
55	0xbe0c2530	-0.13686061
56	0x3e7e5241	0.24836065
57	0x3e7711ac	0.24127835
58	0xbdc93a65	-0.09825591
59	0x3d84a525	0.06476811
60	0xbcf1b0a6	-0.029503178
61	0x3bcbe77b	0.006222663
62	0x3c87174d	0.016490603
63	0x3e7cdbdc	0.24693245
64	0xbddb53aa	-0.10709317
65	0x3eee076c	0.46490037
66	0x3e0e5fc1	0.13903715
67	0x3e066b94	0.13126975
68	0xbdc69e2a	-0.09698136
69	0xbdb04d54	-0.08608499
70	0x3dbd7867	0.092514805
71	0xbd57b0a5	-0.052658696
72	0x3dd4a349	0.10382707
73	0xbdc4768d	-0.09592924
74	0xbd9543a3	-0.07288291
75	0xbe04ee77	-0.12981592
76	0x3e3a85d3	0.18215112
77	0xbdcca99d	-0.09993289
78	0x3d897478	0.06711668
79	0x3e918bdb	0.28427014
80	0x3dc80ed5	0.09768454
81	0xbc441c35	-0.011969616
82	0x3ca77791	0.020442756
83	0x3cf2cff9	0.029640185
84	0xbe8cdcf6	-0.2751233
85	0x3f03f580	0.5154648
86	0xbd2151ff	-0.03938484
87	0xbe5b264f	-0.21401332
88	0xbd7f352c	-0.062306568
89	0xbe673982	-0.22580531
90	0xbd1c28ee	-0.03812497
91	0xbda61740	-0.08109903
92	0xbe72a986	-0.2369748
93	0xbe3a7b45	-0.18211086
94	0xbdb674f4	-0.08909026
95	0xbe0b85a1	-0.13625194
96	0xbe0fd304	-0.1404534
97	0xbd5c462e	-0.053777866
98	0xbdd34b07	-0.10317045
99	0xbcd76734	-0.026294328
100	0x3c90ff67	0.01769991
101	0xbe5385df	-0.20656537
102	0xbe1e1678	-0.15438259
103	0xbe0e6a50	-0.13907743
104	0xbe0e5adb	-0.13901846
105	0x3c793a77	0.015211693
106	0x3be19ea0	0.0068853647
107	0xbd6df3ad	-0.058093715
108	0xbdfdc485	-0.12390999
109	0x3ddbdf67	0.1073597
110	0x3e663c69	0.22483982
111	0x3d800840	0.062515736
112	0x3cb37d27	0.021910263
113	0xbe18f323	-0.149365
114	0xbde1590a	-0.11003311
115	0xbdf4500a	-0.11929329
116	0xbe1905dd	-0.14943643
117	0x3dc559e9	0.096362896
118	0xbdb54503	-0.088510536
119	0x3e8d50b1	0.27600625
120	0x3d079cf1	0.033108655
121	0xbdb54245	-0.088505305
122	0x3d871ead	0.06597648
123	0xbdda33dd	-0.106544234
124	0x3d85bcdb	0.06530162
125	0xbdf16a4a	-0.11787851
126	0xbda1fe51	-0.07909835
127	0xbe77be7d	-0.2419376
128	0xbd0f7fa7	-0.035033848
129	0xbe3368cb	-0.17520444
130	0x3e21e28d	0.15809079
131	0xbb921300	-0.0044578314
132	0xbe109fc2	-0.14123443
133	0x3e54a264	0.20765072
134	0xbd8f88c7	-0.0700851
135	0xbe52ba43	-0.20578866
136	0xbd574cff	-0.052563664
137	0xbdf811d2	-0.12112774
138	0xbccb3e9d	-0.02481013
139	0xbdba5fe7	-0.09100323
140	0x3cf487b6	0.029849868
141	0xbc009b10	-0.00784947
142	0x3c779437	0.015111021
143	0x3e096cf4	0.13420469
144	0x3e3b45cf	0.18288349
145	0xbe03caea	-0.12870374
146	0xbd0fdc4f	-0.035122212
147	0xbdacc7a0	-0.08436513
148	0xbd6bf679	-0.0576081
149	0x3e213b28	0.15745223
150	0xbd00a5f4	-0.031408265
151	0x3d30d51e	0.043171994
152	0x3d93fb46	0.07225661
153	0x3dc81890	0.0977031
154	0x3dab3652	0.0835997
155	0x3e2532e5	0.16132696
156	0xbe349a3f	-0.17636965
157	0x3c584a69	0.0132013345
158	0xbd8def9e	-0.06930469
159	0xbe2d47a5	-0.16921861
160	0xbdf01005	-0.117218055
161	0x3cd14e37	0.025549991
162	0xbe7ca967	-0.24673997
163	0xbd5c6146	-0.053803705
164	0xbdb67498	-0.08908957
165	0x3e1c3349	0.15253939
166	0xbb3bdfdf	-0.0028667373
167	0xbe18cbc8	-0.14921486
168	0xbe402e2d	-0.18767615
169	0x3e01523f	0.1262903
170	0x3e0231b9	0.1271428
171	0x3e424d45	0.18974788
172	0x3cf3c38d	0.029756332
173	0x3c6a8360	0.014313549
174	0xbd6ce88d	-0.057838965
175	0xbd4e2138	-0.05032465
176	0x3cdc421d	0.026886994
177	0x3d817c3c	0.06322524
178	0x3df7b2cb	0.12094649
179	0x3d031e95	0.032011587
180	0x3e20398f	0.15646957
181	0xbd389a3f	-0.045068976
182	0xbde5f781	-0.11228848
183	0xbe131906	-0.14365014
184	0xbe012a65	-0.12613828
185	0x3dd1f51d	0.1025183
186	0x3e0ca36a	0.13734213
187	0xbe02cfd9	-0.127746
188	0xbe5a556f	-0.21321653
189	0xbda028d0	-0.07820284
190	0xbd9d7bcf	-0.0768963
191	0xbe0253be	-0.12727258
192	0x3e8c74c8	0.27432847
193	0x3e5652c7	0.20930015
194	0xbdeda041	-0.11602832
195	0xbdb53a78	-0.08849043
196	0x3d916422	0.07099177
197	0x3ea68edc	0.32530868
198	0x3af96372	0.0019026829
199	0x3e041352	0.12897995
200	0x3e2cccc1	0.16874982
201	0xbe72d9b7	-0.23715864
202	0x3bc0707b	0.0058727837
203	0xbd0729a5	-0.0329987
204	0x3d0fabfd	0.03507613
205	0x3e3b2a27	0.18277799
206	0xbd15cbd5	-0.036571342
207	0xbda3e55f	-0.080027334
208	0x3ea33588	0.3187678
209	0xbccf1fa6	-0.025283646
210	0xbe00a9c3	-0.12564759
211	0x3e287ec7	0.16454612
212	0xbe53c1ab	-0.20679347
213	0xbdd2bfcd	-0.10290489
214	0xbe188361	-0.14893867
215	0xbcb64619	-0.022250222
216	0x3e61be62	0.22045282
217	0xbe4dfae6	-0.20115241
218	0x3ddec0fc	0.108766526
219	0x3db85e25	0.09002332
220	0x3c5aeb87	0.013361818
221	0x3c2aac82	0.010417106
222	0x3b509ce0	0.0031831786
223	0x3d6df71e	0.058096997
224	0xbdea32fb	-0.11435505
225	0x3dc2effd	0.095184304
226	0xbe123156	-0.14276633
227	0xbdc12fde	-0.09432958
228	0x3e14ce49	0.14531817
229	0x3d50f829	0.051017914
230	0x3d48fcf6	0.049069367
231	0xbde32fdc	-0.11093113
232	0x3cb40b01	0.021977903
233	0x3d405a33	0.04696102
234	0x3e195ae7	0.14976083
235	0xbd004e56	-0.031324707
236	0xbdee324b	-0.11630686
237	0x3c3ef091	0.011654035
238	0xbdaedc81	-0.085381515
239	0xbd65480d	-0.055976916
240	0xbe29e4f8	-0.16591251
241	0x3e57fcf8	0.21092594
242	0xbe0faf06	-0.1403161
243	0xbd9e16ad	-0.07719169
244	0xbdffb9d1	-0.124866135
245	0x3e8343b2	0.25637585
246	0x3ea671ca	0.3250869
247	0xbc9ec5b6	-0.019381385
248	0xbe0fa53b	-0.14027874
249	0xbe620019	-0.2207035
250	0x3c578803	0.013154986
251	0xbdb751a4	-0.089511186
252	0xbe4f9850	-0.20272946
253	0x3de4e653	0.11176743
254	0x3d9aca67	0.075581364
255	0xbb183305	-0.002322377
